chatbot/data.pth (torch, 9834 bytes, 6 tensors)

l1.weight f4 [8, 141]
00000000: ef69 8d3e 5fd4 173f f9e4 623d 3cd1 e9bd
00000010: ec39 863e 80d7 ab3f 28ee f53e 0e29 6d3e
00000020: 14ee 2fbd 55a7 553f 468a f8bd da5c 0ebd
00000030: a139 ff3e e771 1b3f 2517 2cbe 666d 09bf
00000040: 65c4 173d c146 8a3e 7bec 783f 71ce a43e
00000050: 6fae 703f 5b15 a3be 2de1 90be 9cbe 833e
00000060: f135 d5be 8e2e be3e 01b4 4dbd 3cf9 343e
00000070: 5376 613e 63cf b53e 353f acbd 330b 31be
00000080: f6ad 093e 3bab 8abd 7657 153f bf73 023f
00000090: 8cc6 d7bc 2427 c13e dffa ee3d 03b5 fbbe
000000a0: e4cb bd3e ecc5 153f c56a 753e d916 513e
000000b0: 9e97 c73e a93d 553f bbe1 0dbe dc2e bcbe
000000c0: ab42 eebe fd8e 02bf 5cd4 cebe a799 913e
000000d0: fed9 e2bd bf9a 363f b608 c4bd 7361 16be
000000e0: 32a1 433e e1e2 8a3c dd59 953d 52cb 1abf
000000f0: 6493 ed3e 832e a63e 4034 4ebe 423c c53e
00000100: d96a 123f 9394 18be 1721 d63e 2473 b7be
00000110: f951 b73e 78c7 b83e d4a6 d9be 2ff4 32bf
00000120: 330e d83e ef53 9cbe a285 183e 6714 3f3e
00000130: dc19 b53e 1424 a7bc 812d 823d 8988 4b3e
00000140: c576 983f d6f1 2d3f 0108 54be bd37 573d
00000150: 137d 923f f71e 41bf 75b1 95be 0c20 f4be
00000160: 555a 8d3e 9af4 473d 7538 3a3e 714a aabd
00000170: 0548 943e 0e39 a7bd 984b 153f 4ee3 9cbe
00000180: 8d1a 4f3e fb7c 25be bdd7 9abe 2179 90bd
00000190: 39f8 fabe 73da 51be f476 ffbe 9627 183f
000001a0: ade0 08bf 7573 7dbe 970a b03e 518c 6e3c
000001b0: 4a01 143d b822 d4bb cdaf a1bd ff7b 0c3e
000001c0: f877 6c3f 6042 dc3e f5b1 bb3e 0f4a afbd
000001d0: 7fa7 933e d370 813d bba1 843e bc40 123f
000001e0: d060 963e 3203 983e 37c9 7bbe 8e95 03bf
000001f0: 2ed3 a23c 418b 453d 4db3 91be 2afb 51bd
00000200: c415 c33e f6bd 933d d591 63bd f16d 8cbe
00000210: ae40 a2be 52cd a43f f111 1a3f 8c6d 05bf
00000220: 553e e2be 5d5b 403f c4ee b3be e1b2 e43e
00000230: e5a8 4a3e 3192 a03d 9bbe 3c3f 413d e4bd
00000240: 2aa0 a83d fde6 053e a332 3c3f 4939 173f
00000250: f554 183e ba62 8c3e e2bd 273f e67f 573e
00000260: bf20 1d3e 16b4 633f 945c 883f 6013 0a3f
00000270: 6be7 7d3f 20e1 323e b66e 943e 392f a93f
00000280: 5859 9f3e e8bc 883f 098d b43e 57d4 a5be
00000290: 7c0f cd3e ddfd 693f 9418 03be c5f4 51bf
000002a0: fc0b bebc 81c3 0a3e 122e 8b3e 4c84 5f3f
000002b0: fc40 e7be 351f 29bf 73ac be3e f9bb 3dbf
000002c0: e63e 6a3d fb69 53be 440c 2dbe 79b5 413d
000002d0: 9b79 0f3e 3485 14bf 19e6 3dbf 91e0 013d
000002e0: ac44 223e 0b50 ebbb 2d95 813f aaf2 613e
000002f0: 0213 603f da74 723f 348c 7e3f a69c 603f
00000300: 2f6d d0bc 4536 463e 99ad 2e3f 3c58 b13e
00000310: 7a71 b33b e2af 73bd c00a 543e 9bd5 dd3d
00000320: 2cc5 42be 04e4 7a3f d621 8a3e 4b3e 503e
00000330: 2054 8ebd 033c a13e 1513 0b3f a004 033e
00000340: 2c43 d93e 457f 9e3e a04c b73c 6708 d23e
00000350: 2994 22bf 3603 6e3e bda7 17be f7e0 b93d
00000360: fe3b 3ebf 83ea 9e3c 86fd c93e bd5e d3bd
00000370: c834 043e 3ba0 843e 6702 3ebf 5609 813e
00000380: 5960 49bd 3f78 583e 59db 4b3f 0394 0e3e
00000390: 2756 6f3f bd9a 173f 5787 743e b11e 2e3f
000003a0: a223 cc3e 64b9 bf3e ab97 013f 3a5c 433f
000003b0: 1f96 87be ba1c e43d 3235 283e c9f8 b53e
000003c0: 773a 82bd 9325 793f a27b 653e e9a3 0e3e
000003d0: 1172 863f 7818 193e e6e8 cbbe 13c1 833e
000003e0: b256 b0be 1e84 51be 0273 ca3e e0f8 6abd
000003f0: f5b4 22bd 34e6 a83f c9be f73e 8be4 193f
0.27619883 0.5930843 0.055394147 -0.114168614 0.26216066 1.342514 0.4803326 0.23160192
-0.04295166 0.83458453 -0.121357486 -0.03475652 0.49848655 0.60720676 -0.16805704 -0.53682554
0.03705253 0.27007106 0.9723584 0.32188752 0.94016165 -0.3185223 -0.28296795 0.2573136
-0.41642717 0.37144893 -0.050220493 0.176732 0.22017793 0.35509786 -0.08410493 -0.17289428
0.13445267 -0.06770941 0.5833658 0.50957865 -0.026339792 0.37725174 0.116689436 -0.49161538
0.3706962 0.5850513 0.2396651 0.20418872 0.38982862 0.8329721 -0.1385564 -0.367545
-0.4653524 -0.5099943 -0.40396392 0.2843754 -0.11076735 0.71329874 -0.09571974 -0.14685611
0.1910446 0.016953887 0.07292531 -0.6046649 0.46401513 0.3245736 -0.2013712 0.38522536
0.57194287 -0.14900427 0.4182212 -0.35830033 0.35804728 0.36089683 -0.42510092 -0.69903845
0.42198333 -0.30532786 0.14894727 0.18660127 0.35371292 -0.020402946 0.063563354 0.19876303
1.1911246 0.6794714 -0.20706178 0.05254339 1.144442 -0.75437874 -0.2923695 -0.476807
0.2760798 0.048817255 0.18185599 -0.0831498 0.28961197 -0.08165179 0.5831847 -0.3064217
0.20224972 -0.16160958 -0.3024272 -0.070543535 -0.49017504 -0.20493488 -0.49895442 0.59435403
-0.5346783 -0.24751075 0.3438308 0.014559821 0.03613404 -0.0064738654 -0.078948595 0.13719176
0.9237056 0.4301939 0.36659208 -0.085590474 0.28838727 0.06320348 0.2590464 0.57130027
0.29370737 0.29689938 -0.24588476 -0.5140008 0.019876089 0.048228506 -0.28457108 -0.05126492
0.38102543 0.072139665 -0.055559 -0.2742763 -0.31689972 1.2875159 0.60183626 -0.5212028
-0.4418818 0.7513941 -0.351431 0.44667724 0.1979099 0.07840384 0.7372834 -0.11144496
0.08233674 0.13076396 0.73514766 0.59071785 0.14876159 0.27419072 0.65524113 0.21044883
0.15344523 0.88946664 1.0653253 0.53935814 0.9918124 0.17468691 0.28990716 1.3217536
0.3112285 1.068265 0.3526385 -0.32388565 0.40050876 0.9140299 -0.12802345 -0.82014114
-0.023199074 0.13551141 0.27183586 0.87311244 -0.45166767 -0.66063243 0.37240943 -0.7411495
0.05718889 -0.20645897 -0.1689921 0.047292206 0.14011233 -0.5801575 -0.74179226 0.031708304
0.15846509 -0.0071811727 1.012365 0.22065225 0.87529004 0.9470955 0.99432683 0.87739027
-0.025442688 0.1935664 0.6823364 0.3463763 0.005476174 -0.059493907 0.20707226 0.10831758
-0.19020528 0.98004174 0.2697894 0.20336263 -0.06949639 0.31491098 0.5432599 0.12794733
0.4243406 0.30956474 0.022375405 0.41022035 -0.63507324 0.23243412 -0.14810081 0.09076112
-0.7431029 0.019398933 0.39451236 -0.10320804 0.1291076 0.25903496 -0.74222416 0.25202435
-0.04916415 0.2113962 0.7963157 0.1392365 0.93490833 0.59220487 0.23879753 0.6801558
0.39870936 0.3744613 0.5062205 0.763126 -0.2648172 0.11138292 0.16426542 0.3554137
-0.063588075 0.9732296 0.22410443 0.13929714 1.050356 0.1495074 -0.39826125 0.2573324
-0.34441143 -0.20460555 0.3954087 -0.057366252 -0.039723355 1.3195252 0.48387745 0.60114354

l1.bias f4 [8]
00000000: 86b0 173f 6989 3c3f f50f 603f 779f ea3e
00000010: 7edd 1e3f 14e7 f83e 9d79 ef3e e415 433f
0.5925373 0.7364717 0.8752435 0.45824787 0.6205672 0.486138 0.4677247 0.7620528

l2.weight f4 [8, 8]
00000000: c94e 09be 404f 1fbf 8dd3 523f d84d e73f
00000010: 35dc 36bd 9843 8b3f 1255 ef3d b57d c83f
00000020: 461d 8d3f c9fa e43e 7e17 e83e 3d0e 6abd
00000030: f34d a03d b1dd 05be bc34 b73f f451 80bf
00000040: 6c1d 843f 7b7e 983f 5381 923f c8dd f53e
00000050: 9da9 8bbf 96e2 59bf e7e3 66bf f6fc 5c3f
00000060: 33b6 453f 1e18 b33f 8ff4 b7bf ec01 76bf
00000070: 86fa 8e3f 0f9e 4d3f b403 483e a590 a83f
00000080: 5a92 c13f 97e4 70bf 590b 4d3f f047 bf3f
00000090: fe07 98bf 1470 3ebd 6d44 943f c4aa 843d
000000a0: 59df a5be 9860 593e 43b7 41bf 7064 833f
000000b0: 7323 973f 0f63 b83f 539e cb3f 678d 7a3f
000000c0: 9a33 7d3f 5cd5 a73f 1e67 8f3d f1d5 dbbf
000000d0: 1764 ad3f 736f ee3e 5cec c33e c803 39bf
000000e0: 42bd 92bf bbd8 11bf 4a69 f93f e857 52bd
000000f0: ceec 9c3f c179 f43e 9fdf c8bc 7289 9d3e
-0.1340896 -0.622303 0.8235405 1.8070631 -0.0446436 1.0880003 0.11686148 1.5663363
1.1024559 0.44722584 0.45330423 -0.057142485 0.07827368 -0.1307285 1.4312968 -1.002501
1.0321479 1.1913599 1.1445717 0.48020768 -1.0911137 -0.8511137 -0.901915 0.8632349
0.7723114 1.3991735 -1.4371508 -0.9609668 1.1170204 0.80319303 0.19532663 1.3169142
1.5122788 -0.940988 0.8009544 1.4943829 -1.1877439 -0.046493605 1.1583382 0.064778835
-0.32396963 0.21228254 -0.7567026 1.0265026 1.1807693 1.440523 1.5907692 0.9787201
0.9890686 1.3111987 0.0700209 -1.7174665 1.354617 0.46569404 0.38266265 -0.72271395
-1.1464007 -0.5697133 1.9485257 -0.051353365 1.2259767 0.4774914 -0.024520693 0.30768925

l2.bias f4 [8]
00000000: 0c46 b6be c774 20bf 31cd c43d d820 6b3f
00000010: af36 85be 740f cebe 3876 833f 77c2 a63f
-0.35600317 -0.6267819 0.0960945 0.9184699 -0.26018283 -0.40246165 1.0270452 1.3028096

l3.weight f4 [15, 8]
00000000: 8de9 b6bf 7339 1cbf 3358 593e c444 613f
00000010: 91cb 1cc0 a7f8 7cbf 7d7f 013f 6b49 67bf
00000020: aef5 103f e1ff fabe 5d38 2fc0 e9da e6be
00000030: 0525 7bbf c66c 3c3f 5b3f 83bf cf4d d63c
00000040: 744a bbbf b79e 123f 805e 0ec0 65ad fbbe
00000050: 87d0 1c3f 67f6 c93d 8cc5 eb3d 56e1 34bf
00000060: f048 04c0 eb0b 453f 54d9 10c0 d983 d9bd
00000070: 470b cdbf 4158 ff3e 1f66 0f3f f23f 14c0
00000080: 07f2 163f 5adb 02c0 4243 f23e fdeb fdbf
00000090: 5b60 6d3f 8e6b c3bf c5b2 f1bf f6c9 33be
000000a0: 218c 4b3e 9bae fabe 0680 92bf c0bc 65bd
000000b0: 0362 93be e02a 053f 91eb cebe 324d 14c0
000000c0: c9e6 5cbe a705 11bf da6d 3a3f 390d 09bf
000000d0: d3e3 d5be f9a3 25c0 7d1d 8dbe af6f 01bf
000000e0: 39a4 1f3f bde5 18c0 07c4 ccbf bf00 2fc0
000000f0: de3e 9abf e57e c23d 4d32 1cbf e703 8b3f
00000100: 1dff e5bf f3e7 1dbf 5948 96c0 36af cdbd
00000110: 3d9b 78bf 1c3e c5bf 6ce5 563f 7dce b53f
00000120: eca2 f33e d5fa 47be d18f c7bf de4a 10c0
00000130: 3dec 323f becf 333e 9433 ccbf 1e46 44bd
00000140: 85b0 b3bd 476c ec3e 2050 023e 182e b8bf
00000150: 110b bb3e d52c a73c 52a4 84bf 83b8 cebf
00000160: ae41 483e 3813 07c0 8a83 1c3f 85fc b6be
00000170: 607e cabf a758 c8be e32d c5bf d74f fc3c
00000180: 4875 21bd 491a 3c3f 8b1c 413d 3a21 28c0
00000190: 9b23 fdbf 6c8a 11c0 82ad af3e b17b 373f
000001a0: 98f1 36bf 51cb c1bf c180 96bf 9edc 403f
000001b0: 64a6 2cc0 42bf 363e 9c14 d53e 113c 24bd
000001c0: f98a ecbf 0def 883f db8d 85bd d811 3dbf
000001d0: 7161 3d3f d089 f6bf e8c2 b33e f507 b7bf
-1.4290024 -0.6102516 0.21225052 0.87995553 -2.4499247 -0.98816913 0.50585157 -0.903464
0.5662488 -0.49023345 -2.7378151 -0.4508889 -0.9810336 0.73603475 -1.025371 0.026160149
-1.4632096 0.5727343 -2.2245178 -0.49155727 0.6125569 0.09861451 0.115122885 -0.70656335
-2.0669518 0.7697131 -2.2632647 -0.10620851 -1.6019067 0.4987202 0.560152 -2.316403
0.58963054 -2.0446382 0.4731694 -1.9837643 0.9272515 -1.5267198 -1.8882681 -0.1755751
0.19877674 -0.48961338 -1.144532 -0.05608821 -0.28785715 0.5201855 -0.40414098 -2.3172116
-0.21572413 -0.5664925 0.7282387 -0.535358 -0.4177538 -2.588133 -0.2756156 -0.5056104
0.6235996 -2.389022 -1.5997323 -2.7344205 -1.2050436 0.094968595 -0.6101425 1.0860566
-1.7968479 -0.6168205 -4.6963315 -0.100431845 -0.97111875 -1.5409579 0.8394382 1.420364
0.47585237 -0.19529279 -1.5590764 -2.2545695 0.6989172 0.17559716 -1.595324 -0.04791843
-0.08773903 0.4617636 0.12725878 -1.4389067 0.3653188 0.02040712 -1.0362647 -1.6150059
0.19556305 -2.110548 0.6113821 -0.35739532 -1.5819817 -0.39130136 -1.5404629 0.03079979
-0.03941849 0.7347761 0.04714636 -2.627028 -1.9776491 -2.2740736 0.34312063 0.71673113
-0.7146239 -1.5140172 -1.1758043 0.75336635 -2.6976557 0.17846397 0.41617286 -0.040096346
-1.8479911 1.0697953 -0.065211974 -0.7385535 0.7397681 -1.9260807 0.3510964 -1.4299303

l3.bias f4 [15]
00000000: 1997 203f 790d fcbe 09b3 00be 1d0b d3be
00000010: eaab 883e e0fa b1be 3b5b 88be 892d a73e
00000020: 2a7a ed3e 2e3a 16bf 66ff a9be 4e3b 20be
00000030: 253c 533c 7f86 8c3e 4978 113d
0.62730557 -0.4922903 -0.12568296 -0.41219416 0.2669366 -0.34761715 -0.26632103 0.32651928
0.46382266 -0.58682525 -0.33202666 -0.15647623 0.012892758 0.27446362 0.035515103
