chatbot/data.pth (torch, 9770 bytes, 6 tensors)

l1.weight f4 [8, 139]
-0.08572623 0.34320474 0.3442311 -0.06883375 -0.5647255 0.36000577 0.027130127 -0.18902925
0.4649757 0.6371317 0.4072688 0.014886685 0.11083585 -0.27311018 -0.5073432 -0.026269482
0.26872772 0.37680584 0.31893095 0.9745196 0.34499872 0.30490413 -0.49176845 -0.30176827
0.6880512 0.37856576 -0.07197164 -0.06604689 0.7383442 0.6442857 0.60184443 0.5125329
0.48453423 -0.08402937 -0.56989706 -0.28575203 -0.029884778 1.3442594 0.04493393 0.49778607
0.33708912 0.17273876 -0.06836447 0.94979584 0.67312783 -0.51907444 -0.48406103 -0.55947477
-0.55855995 0.39646202 0.7248548 0.58144945 0.48587292 0.61494255 0.50387675 0.20634322
0.67567337 -0.11492489 -0.58493084 0.18342139 0.26006463 0.3238385 0.45705503 -0.19916825
-0.36960015 -0.28779307 0.30668703 1.1914916 0.47080997 -0.148198 0.35229892 0.32908058
-0.026041968 -0.047228064 0.41444808 1.1941707 0.0040771966 0.5507729 0.31054157 0.27818114
6.844453e-05 0.50548637 0.5986013 0.11389692 0.010336992 0.69548875 -0.068768315 -0.5594642
0.04054178 0.20922908 -0.2051492 0.36820644 0.3420635 0.3494828 0.4490547 0.030225797
0.37025186 0.2497678 0.3076415 0.15923417 -0.5580985 0.6622335 -0.030179605 0.08502782
-0.07995827 0.3095664 -0.00082897494 0.5878834 0.42564124 0.4678377 -0.17669864 0.0868142
0.5076588 0.09935886 0.60946214 0.36518285 -0.14457771 0.013927398 0.22624734 0.35002008
0.07003834 0.52595675 -0.38988647 0.34315112 0.38186052 -0.13555965 0.45420074 0.4776784
-0.042449728 0.31204998 0.8429794 -0.56034005 0.47789598 -0.49872452 -0.48108363 0.59199464
0.45348617 0.41615114 1.1638906 0.17764685 0.26027414 0.24155337 -0.0064546047 -0.5594227
0.32523698 -0.013713362 0.1339607 -0.4083461 0.55668175 0.4409545 0.20924555 -0.22113514
-0.25735644 -0.5621461 -0.07901141 -0.34219638 0.58140343 -0.023607127 -0.40706336 0.26753968
-0.3421328 -0.5628659 0.3233754 0.263075 0.5898755 -0.018259393 -0.074659795 0.47777197
0.2990153 0.006486311 0.4731625 0.3539917 0.6109612 0.36187652 0.27658042 0.4296329
1.0973636 0.04436793 0.30696198 0.009075733 0.19128416 0.46948984 -0.38290185 0.48622802
-0.5631355 -0.56248397 -0.5621306 -0.5626029 -0.047487747 0.47463253 -0.28943822 0.36286312
0.39464515 0.41577715 0.11539795 0.3709591 -0.05070848 0.35202247 -0.18682581 0.17019139
0.4751994 0.36906454 0.39752257 -0.43794957 -0.30531695 0.13783792 0.6950543 0.006115923
0.25223416 0.25596622 0.90320706 -0.051766593 -0.093095705 -0.03979727 0.5119311 0.36710083
0.42344004 -0.08606617 -0.08074249 1.0541513 0.33788452 0.4964131 0.45775953 0.9733487
0.6996031 0.20383535 -0.5633204 0.1710114 0.46008733 0.054103497 0.20517707 -0.13682042
0.22337742 0.25578773 -0.069379374 -0.021821039 0.29454976 0.30491278 0.25306427 -0.56236094
0.40626884 0.4294268 0.45388696 0.3923366 0.7145156 -0.004900737 0.39419273 0.39986947
0.2710897 -0.015156307 0.5223558 0.81316185 -0.27752838 0.13920814 0.22193055 -0.4070563
00000000: 3c91 afbd 88b8 af3e 0f3f b03e b6f8 8cbd
00000010: da91 10bf ad52 b83e 0040 de3c e290 41be
00000020: 4c11 ee3e 101b 233f 8985 d03e 48e7 733c
00000030: e8fd e23d 19d5 8bbe 3ee1 01bf 1933 d7bc
00000040: ae96 893e b2ec c03e eb4a a33e 1e7a 793f
00000050: aca3 b03e 651c 9c3e 13c9 fbbe 5f81 9abe
00000060: 2024 303f 5fd3 c13e de65 93bd 9843 87bd
00000070: 2004 3d3f e8ef 243f 7a12 1a3f 5b35 033f
00000080: df14 f83e 9717 acbd c6e4 11bf 174e 92be
00000090: ecd0 f4bc b110 ac3f a40c 383d d1dd fe3e
000000a0: f296 ac3e 6ee2 303e ac02 8cbd d225 733f
000000b0: 1b52 2c3f 10e2 04bf d9d6 f7be bd39 0fbf
000000c0: c9fd 0ebf 12fd ca3e 1690 393f dfd9 143f
000000d0: 56c4 f83e e06c 1d3f 11fe 003f a34b 533e
000000e0: eef8 2c3f be5d ebbd 07be 15bf d1d2 3b3e
000000f0: 3127 853e 29ce a53e 1e03 ea3e c3f2 4bbe
00000100: 3b3c bdbe 9d59 93be 1506 9d3e cc82 983f
00000110: 010e f13e 37c1 17be 8660 b43e 407d a83e
00000120: f755 d5bc 3772 41bd 8a32 d43e 96da 983f
00000130: 019a 853b 74ff 0c3f 4eff 9e3e c26d 8e3e
00000140: e189 8f38 8e67 013f ef3d 193f ca42 e93d
00000150: 7d5c 293c 8d0b 323f 67d6 8cbd 0c39 0fbf
00000160: 230f 263d 2640 563e a212 52be 8e85 bc3e
00000170: f222 af3e 69ef b23e 7fea e53e 179c f73c
00000180: a791 bd3e 21c3 7f3e 3083 9d3e 480e 233e
00000190: 8bdf 0ebf 2288 293f 383b f7bc 1123 ae3d
000001a0: 29c1 a3bd 7d7f 9e3e 914f 59ba 877f 163f
000001b0: a6ed d93e 6c88 ef3e 7df0 34be a5cb b13d
000001c0: edf5 013f a87c cb3d b605 1c3f 3ff9 ba3e
000001d0: 2e0c 14be be2f 643c 62ad 673e d535 b33e
000001e0: 4370 8f3d 1aa5 063f 339f c7be 81b1 af3e
000001f0: 3983 c33e 26d0 0abe 008d e83e 4392 f43e
00000200: c4df 2dbd 04c5 9f3e 7fcd 573f 7272 0fbf
00000210: c8ae f43e d258 ffbe 9850 f6be f68c 173f
00000220: 572f e83e c311 d53e 5efa 943f 0ee9 353e
00000230: a742 853e c459 773e 2681 d3bb 5336 0fbf
00000240: 7685 a63e 02ae 60bc fe2c 093e bd12 d1be
00000250: b282 0e3f cac4 e13e 7744 563e 4071 62be
00000260: 39c4 83be cfe8 0fbf bcd0 a1bd 5d34 afbe
00000270: dbd6 143f bc63 c1bc 9c6a d0be f6fa 883e
00000280: 082c afbe fb17 10bf 7691 a53e c4b1 863e
00000290: 1502 173f b994 95bc 3ce7 98bd 879e f43e
000002a0: 8918 993e 1f8b d43b 5b42 f23e 663e b53e
000002b0: f467 1c3f e147 b93e f39b 8d3e d8f8 db3e
000002c0: 6976 8c3f 26bb 353d 1f2a 9d3e 62b2 143c
000002d0: ffdf 433e f960 f03e b60b c4be e1f2 f83e
000002e0: a629 10bf f3fe 0fbf cae7 0fbf be06 10bf
000002f0: 8382 42bd 0903 f33e 3f31 94be 32c9 b93e
00000300: ee0e ca3e bee0 d43e c355 ec3d 5aee bd3e
00000310: b2b3 4fbd 4a3c b43e 444f 3fbe a746 2e3e
00000320: 564d f33e 07f6 bc3e 1488 cb3e ed3a e0be
00000330: 8152 9cbe 6225 0d3e 14ef 313f 1568 c83b
00000340: d624 813e 010e 833e 9438 673f 3509 54bd
00000350: f6a8 bebd 7602 23bd eb0d 033f a4f4 bb3e
00000360: 22cd d83e 7643 b0bd 525c a5bd 6eee 863f
00000370: 33ff ac3e dc29 fe3e 755f ea3e 612d 793f
00000380: 3019 333f 37ba 503e c435 10bf 9d1d 2f3e
00000390: 9190 eb3e a19b 5d3d f019 523e a71a 0cbe
000003a0: 0dbd 643e 9cf6 823e c616 8ebd 09c2 b2bc
000003b0: 3acf 963e 871d 9c3e a491 813e e3f6 0fbf
000003c0: 7802 d03e d4dd db3e df63 e83e 58e0 c83e
000003d0: 7fea 363f 5d96 a0bb a1d3 c93e b1bb cc3e
000003e0: 45cc 8a3e 2952 78bc 1cb9 053f 602b 503f
000003f0: 3318 8ebe 948c 0e3e c341 633e af69 d0be

l1.bias f4 [8]
0.555388 0.5571743 0.84806186 0.8742095 0.46415251 0.8843944 0.5527672 1.2516836
00000000: e82d 0e3f faa2 0e3f 951a 593f 32cc 5f3f
00000010: 66a5 ed3e ac67 623f 2782 0d3f 2b37 a03f

l2.weight f4 [8, 8]
-0.72075576 -0.7712779 -0.25176257 1.6328254 -0.8353847 1.0436225 1.4898914 0.950093
-0.5686391 0.7234201 1.2358719 0.9773931 0.6213755 -0.4958708 -0.5328796 1.3628163
0.7856024 1.4484602 -0.3066485 -0.99438256 1.7578803 0.79300845 -1.1998047 0.8804638
0.74157715 0.5214836 -0.009676924 -0.17125173 -1.0662705 0.37043336 1.2552731 0.80271316
1.5988201 0.31751 0.15821074 -0.5913789 -0.9525184 1.4858717 -0.058700465 -0.115319796
1.1580893 0.3320135 1.5507233 0.4530887 -0.3831656 -1.1242211 -0.89743763 0.66979945
1.0517845 0.109712355 1.8460344 0.6281687 1.4511774 0.02786764 1.4443622 -1.4801233
0.69226134 1.2305124 1.0493078 -0.7345504 -1.2191675 0.18090992 1.4649616 -0.1690291
00000000: 7383 38bf 7872 45bf 06e7 80be 6c00 d13f
00000010: c6db 55bf 6c95 853f c3b4 be3f 4b39 733f
00000020: 5592 11bf 0f32 393f 0d31 9e3f 6f36 7a3f
00000030: 7712 1f3f c7e2 fdbe cc6a 08bf c470 ae3f
00000040: 3d1d 493f 2567 b93f 0801 9dbe db8f 7ebf
00000050: 3902 e13f 9a02 4b3f 3393 99bf 1366 613f
00000060: 00d8 3d3f f37f 053f f68b 1ebc 9d5c 2fbe
00000070: 8d7b 88bf 71a9 bd3e caac a03f 9c7e 4d3f
00000080: 23a6 cc3f ac90 a23e ff01 223e 9c64 17bf
00000090: 3fd8 73bf 0b31 be3f e66f 70bd c92c ecbd
000000a0: 453c 943f acfd a93e 1a7e c63f 3efb e73e
000000b0: 482e c4be 7ae6 8fbf 79be 65bf fa77 2b3f
000000c0: e0a0 863f dfb0 e03d db4a ec3f aacf 203f
000000d0: 2ec0 b93f ad4a e43c dce0 b83f ae74 bdbf
000000e0: 0a38 313f 6e81 9d3f b84f 863f 7f0b 3cbf
000000f0: ae0d 9cbf 7340 393e dd83 bb3f f715 2dbe

l2.bias f4 [8]
0.7594286 0.17594959 0.29334405 -0.25016075 0.5790053 0.47828075 0.09140637 0.35501322
00000000: ea69 423f 212c 343e 3131 963e 1215 80be
00000010: b139 143f 37e1 f43e 4333 bb3d 4bc4 b53e

l3.weight f4 [15, 8]
0.18537574 -0.28789192 0.3656675 0.12652373 0.38617435 -0.6202299 -2.351114 -0.7917388
0.342981 0.36692142 0.13301308 -1.5543263 -2.3884947 -1.7326663 0.21195237 -0.79733944
-1.7969776 0.33405438 1.1513143 -3.3136473 -1.1318624 -0.116316564 -1.6812485 -1.1488202
-1.6905289 -0.87957466 0.10480532 0.30641362 0.7338348 0.08638983 -1.588597 0.7643179
-0.110956244 -0.43773952 -2.5345447 0.030794328 -0.71217585 0.5394885 -0.48489103 0.90378463
-2.0132608 -0.6984257 -0.3382782 -3.4829004 0.048661415 0.47743857 0.6899095 -0.95721704
0.52274007 -0.8602973 -0.46103236 -3.8035698 0.7475054 -0.9566028 0.027584234 -0.7201697
-1.4510293 0.24549673 0.05817633 -1.1518656 -1.1113645 0.62863904 -0.6714777 0.28024423
-0.2088215 0.26507005 -0.99085635 -5.0122957 -2.1339653 0.5701808 0.07397447 0.10264778
-1.3290747 -1.7393994 -0.7109341 -0.22901286 0.4687797 -0.8459643 0.5283404 0.6886188
-0.21592088 -1.1106201 -1.7498474 -1.3990892 -1.668698 -0.39515728 0.8250929 0.3595854
-1.5297872 -2.071304 0.7140296 -2.0475376 0.63323253 -1.1803281 -0.0007596489 -0.26568806
-0.18848637 -3.0829945 -0.26044533 0.87341523 0.7515454 -1.8044807 -0.80182785 0.6564473
0.9724044 -0.6305761 -0.86709696 0.47689345 0.11025374 -1.2996585 -1.8633318 0.15228699
0.49691737 0.5999828 -1.3794369 -1.3823414 -1.7420671 0.98157966 -1.7140235 -1.4820545
00000000: 23d3 3d3e 9266 93be c538 bb3e 708f 013e
00000010: a5b8 c53e 63c7 1ebf a778 16c0 65af 4abf
00000020: 359b af3e 20dd bb3e 9534 083e 2af4 c6bf
00000030: 19dd 18c0 02c8 ddbf 0b0a 593e 701e 4cbf
00000040: 5d03 e6bf 2d09 ab3e 445e 933f cc12 54c0
00000050: dee0 90bf 6137 eebd 2733 d7bf 8a0c 93bf
00000060: 4063 d8bf ce2b 61bf 2ca4 d63d 3fe2 9c3e
00000070: 99dc 3b3f 27ed b03d 2657 cbbf 57aa 433f
00000080: 073d e3bd 651f e0be fb35 22c0 6344 fc3c
00000090: 2851 36bf eb1b 0a3f a343 f8be 6e5e 673f
000000a0: 44d9 00c0 07cc 32bf cd32 adbe d7e7 5ec0
000000b0: 3151 473d d472 f43e e99d 303f 2d0c 75bf
000000c0: 4bd2 053f 723c 5cbf 6f0c ecbe b06d 73c0
000000d0: 845c 3f3f ece3 74bf 55f8 e13c 0b5d 38bf
000000e0: 54bb b9bf 7f63 7b3e 4e4a 6e3d 5570 93bf
000000f0: 3141 8ebf 7dee 203f f6e5 2bbf 2c7c 8f3e
00000100: 4ed5 55be 43b7 873e c3a8 7dbf ba64 a0c0
00000110: e392 08c0 5ef7 113f ed7f 973d 0039 d23d
00000120: 1f1f aabf a4a4 debf c7ff 35bf 5982 6abe
00000130: e503 f03e 1e91 58bf 5141 073f 5249 303f
00000140: 5d1a 5dbe cd28 8ebf 00fb dfbf 5b15 b3bf
00000150: e597 d5bf 0e52 cabe 4a39 533f 941b b83e
00000160: 11d0 c3bf 3f90 04c0 a5ca 363f db0a 03c0
00000170: 871b 223f fe14 97bf 2d23 47ba 4408 88be
00000180: 9202 41be c84f 45c0 1759 85be 2498 5f3f
00000190: 4865 403f 39f9 e6bf 9744 4dbf ee0c 283f
000001a0: 7fef 783f 6f6d 21bf 11fa 5dbf 612b f43e
000001b0: b6cc e13d 365b a6bf a881 eebf 1ff1 1b3e
000001c0: f46b fe3e 7998 193f 6391 b0bf 90f0 b0bf
000001d0: 0efc debf ce48 7b3f 1f65 dbbf f6b3 bdbf

l3.bias f4 [15]
0.25388885 0.31362852 0.04945527 -0.49610868 -0.16767457 -0.39452872 0.26866537 -0.27761358
0.035065975 -0.061143123 -0.36901245 0.2717992 -0.20367587 0.46510145 -0.36317325
00000000: b8fd 813e eb93 a03e 9c91 4a3d f501 febe
00000010: e2b2 2bbe abff c9be 828e 893e 5e23 8ebe
00000020: 57a1 0f3d 3671 7abd 33ef bcbe 4429 8b3e
00000030: 6890 50be c721 ee3e d8f1 b9be
