chatbot/data.pth (torch, 10282 bytes, 6 tensors)

l1.weight f4 [8, 151]
00000000: fd8d a5bc 54e7 443d 258b 07be a75c 1cbd
00000010: 87d1 7abe 9b93 a1bd 9702 04bf fa93 043f
00000020: 5f84 89be 951c 2f3e 803a 4f3f 3f1d 62be
00000030: 252b 9e3d d8fc 343f 4a2d 8d3b 9bb7 ac3e
00000040: 2777 1a3f b092 083f 448e aabc af22 893f
00000050: 2fc0 80be f274 ac3e 7561 34bf 1ec1 efbd
00000060: afca 153f be17 10bd bb00 0f3f 084e 983e
00000070: fee3 28bf 4508 9d3e b2a9 23bd 8027 50be
00000080: 760b 4e3e 60a2 fcbe ee98 84be b2f0 35bc
00000090: 0c2b 61bf 3ca1 ca3e 4fb4 093f c6f0 a33e
000000a0: 1cbd bb3c 80a5 8dbd f312 eebe 7c98 59bf
000000b0: 7c14 e2bc 6a58 90be 0622 943e 196d 19bf
000000c0: bc51 62be d8d8 093f a8d4 f53e bd9f 043f
000000d0: feac 0b3f af50 42bd 77e5 61be 7617 553f
000000e0: a4a1 20bc 3007 f33c e0e5 3abd 51da 913d
000000f0: 39e4 b4be c492 e53e 6bc2 053e 2805 7dbb
00000100: e3c8 083e dcf2 c5bd 5882 be3e ac10 e7be
00000110: 51f4 ee3e bcb7 0d3e 4cc2 4ebf c05c dd3e
00000120: 964c 673e 4771 83be 89e1 443f d5e0 74be
00000130: 4cba cd3c 0753 69bd 45c7 28bf 5b2d 823e
00000140: bfd4 933a 256a 0abe a922 8f3d ad19 293f
00000150: 80f0 67bf 8807 b1be 8461 933e 209b 303e
00000160: c7dc 1abe e5b2 c73a 4701 293f 79e8 f63e
00000170: 5d07 cb3e 7119 873d 7cfd f23e e697 443e
00000180: 6068 af3e 0917 0e3e 7ffc 15be 63c9 953d
00000190: 3695 1bbd 9202 363e 5831 313d 2a16 753d
000001a0: 27e7 81bc f238 a63e 3e3a 0a3f 27df 8ebe
000001b0: 0b7f 543d cbef 3b3f 307c 92bc cbae 193f
000001c0: c2e3 d3bc d81e 08bf db6a e7be fa5d 5c3f
000001d0: 9898 b43e abda 39bc cf0b 6f3f 892b ab3e
000001e0: 73aa e73e b06d 103e 20a4 c63e d617 783c
000001f0: 0d25 1cbe a86e d7bd 178d cfbb b393 933e
00000200: 3343 c73e bb91 b9be fb9a 703e 8325 2dbe
00000210: d058 e0be 3327 143f b9eb a3be a678 a53e
00000220: 0558 5fbd 3314 183e a73d 733f 8c16 573f
00000230: 7de1 c0be f4da e3be ef9c 99bd 3dae 03bd
00000240: 80c8 f43e 6f79 013f 319e 173f e4be 823f
00000250: a0c7 0cbf ac26 f5bd c238 093d 80e9 bebd
00000260: efe7 e3bc 7df5 043f 0a7c 0b3e 3bd4 9dbd
00000270: 46dd 77bd 20e5 eebe de5d e53e aae8 1abd
00000280: dd53 973e 4f80 a2be 6eba 85be 6d6d 87be
00000290: 7c11 57be 29e5 b5be 9735 fc3e 52d7 3f3f
000002a0: 2b50 a4bd 52b0 bf3e 46f2 a23e 6d45 ea3e
000002b0: f5c7 123e c868 763f 2297 f43e 5ab9 0fbe
000002c0: 85a3 973e 27cd 273f de85 28be 1281 243f
000002d0: bb9d 473d 7741 ff3b 772a c3be 4c94 433f
000002e0: cf90 213f 3af3 fa3e cf8a 29bd 666f 813f
000002f0: 62b4 87be d005 58be 8457 5dbd f94f b63c
00000300: 9a75 c43b 6ceb 2f3f 5b85 913f cab2 ac3e
00000310: 9d75 3d3f 4b31 7fbd eb6d 653f 62a1 85be
00000320: b036 163f ce14 123f 56ef 143f d235 353f
00000330: 6381 8f3e c9ab 85be 357a f6bb 2cdf 863e
00000340: bd3c eaba d772 873e dfe1 643b 9831 263d
00000350: c83f 843d 2cb8 df3a d904 a6be a7d0 513e
00000360: 2563 6c3e c79b 24be 96bb c0be a792 da3e
00000370: 8352 9d3e 88f4 0abf 846a 9f3e a726 b3bd
00000380: 1899 bf3e 8da3 43bf 714b aabe 40ab 09bd
00000390: 6b61 9d3e dadb 703f 7169 cabd 81ec dfbc
000003a0: 752a ad3e 8882 f83d ddf5 84be 4313 843f
000003b0: 3b0e d53e 80e0 bebd e5c2 0bbe 302a 533f
000003c0: 06ca 3f3e f45f 373f 16e7 07ba 477e e9be
000003d0: cbcc 593e 8ffd 80be cf69 db3e 3bdd db3e
000003e0: 0350 e53e 3e22 173f 5c42 cbba ccc8 26be
000003f0: d639 f93d 219a c73d 9ad9 623e 5759 a63e
-0.020209307 0.048072174 -0.13236673 -0.038174298 -0.24493991 -0.07889482 -0.5156645 0.51788294
-0.26858804 0.17100747 0.8094864 -0.22081469 0.07723073 0.7069831 0.0043083774 0.3373383
0.6033806 0.5334883 -0.02081979 1.071371 -0.25146624 0.33682972 -0.7046121 -0.11706756
0.58512396 -0.035178892 0.5586049 0.29747033 -0.6597289 0.30670372 -0.039956756 -0.20327568
0.2012156 -0.49342632 -0.25897926 -0.0111047495 -0.8795631 0.39576137 0.53790754 0.32019633
0.022917323 -0.06916332 -0.46498832 -0.849983 -0.027597658 -0.28192455 0.28932208 -0.59932095
-0.22101492 0.538465 0.48013806 0.5180624 0.5456084 -0.047440227 -0.2206019 0.83238924
-0.009804163 0.029666513 -0.045629382 0.07121719 -0.3533037 0.44838536 0.13062446 -0.003860781
0.13357882 -0.096654624 0.3720882 -0.45129907 0.46670774 0.1383962 -0.80765224 0.43234825
0.22587809 -0.2567236 0.7690664 -0.23913892 0.025113247 -0.056963947 -0.6592906 0.25425228
0.0011278613 -0.13517053 0.06989033 0.66054803 -0.9060135 -0.34576058 0.28785336 0.17246675
-0.15123282 0.001523581 0.66017574 0.48224238 0.39654055 0.065966494 0.47459018 0.1919857
0.3425932 0.13875975 -0.14647101 0.07313802 -0.037984096 0.17774418 0.04325995 0.05983559
-0.015857292 0.3246532 0.5399512 -0.27904627 0.05187897 0.7341277 -0.017881483 0.6003234
-0.02586544 -0.53172064 -0.45198712 0.86080897 0.3527267 -0.011343638 0.93377393 0.33431652
0.4524723 0.14104342 0.38797092 0.015142402 -0.15248509 -0.10519153 -0.006333958 0.28823623
0.38918456 -0.36243996 0.2349662 -0.16908841 -0.4381776 0.57872313 -0.3201578 0.3231861
-0.0545273 0.14851455 0.9501595 0.8401878 -0.37672034 -0.44502985 -0.07500636 -0.03214859
0.4780922 0.5057592 0.59225756 1.0214505 -0.54992104 -0.11970267 0.033501394 -0.0932188
-0.027820555 0.51937085 0.13621536 -0.077064954 -0.060513757 -0.46659184 0.44798177 -0.037819542
0.2955617 -0.31738517 -0.26118797 -0.26450673 -0.21002764 -0.35526398 0.49259636 0.7493793
-0.08023103 0.3743921 0.31825465 0.45756093 0.1433409 0.96253633 0.47771555 -0.1403555
0.29616943 0.6554741 -0.16457316 0.64259446 0.048734408 0.0077897864 -0.38118336 0.7639816
0.63111585 0.49013692 -0.041392144 1.0112121 -0.2650481 -0.21095967 -0.05403854 0.02225493
0.0059954645 0.687186 1.1368822 0.33730155 0.7400759 -0.06230287 0.89620847 -0.26099688
0.58677197 0.57062995 0.581777 0.7078525 0.28028402 -0.26107624 -0.0075218924 0.26342142
-0.0017870885 0.26454803 0.0034924669 0.04057464 0.06457478 0.0017068437 -0.32425573 0.20489751
0.23084696 -0.1607505 -0.37643117 0.42690012 0.30727014 -0.54279375 0.31135952 -0.08747607
0.3742149 -0.76421434 -0.33260682 -0.033610582 0.30738387 0.94085467 -0.098833926 -0.027334454
0.33821455 0.12134272 -0.2596883 1.0318378 0.4161242 -0.09320164 -0.13648565 0.8248625
0.1872941 0.7163079 -0.0005184276 -0.45604154 0.21269529 -0.2519345 0.42854163 0.42942223
0.44787607 0.59036624 -0.0015507448 -0.16287535 0.121692345 0.09746195 0.22153321 0.32490036

l1.bias f4 [8]
00000000: bbb4 7a3f 42a9 453f ef94 303f 9b2c 073f
00000010: 6fa4 293f 6e5a 353f 6261 763f b24d 703f
0.9793202 0.7721139 0.68977255 0.5280244 0.6626653 0.7084111 0.96242344 0.93868554

l2.weight f4 [8, 8]
00000000: 34a5 653f 876f ffbe f384 4bbf c084 a3bc
00000010: 2cb5 86be 6c9a 903f 6b38 9b3f d262 a03c
00000020: 0520 d03e e2a4 da3e 36d8 223f 4f6a c2bf
00000030: 8ec9 883f 5254 0f3f 5c1c fcbe 6627 6e3f
00000040: e915 ff3e 746d 713f 2608 9e3f 5e8e 0a3f
00000050: 51f0 a53f 930f f13e dbd8 a4be 0dcf 98bf
00000060: 6ed3 10be 31ae 9d3f e66e 863f 5d8b 1cbf
00000070: e036 97bf 5c65 703e 2bdd 9d3f 66e6 e0bc
00000080: 9d1b 75bf a31b 07be 46a2 f8be 9156 a23f
00000090: fb6f 183f 9a10 e83f 000d a9be 9591 d53f
000000a0: f1ea d23e 0216 3a3b fa94 67bf 9c9e 513f
000000b0: 8fc6 c63f 3911 e13e 8344 be3d 69e3 393f
000000c0: 81fa 6fbe fc4a e13f 9cce 3c3f 89c8 ac3f
000000d0: e99e a0bf 12cc 353e b1d4 a23f 6e4b 153f
000000e0: 4a3f ea3f ee21 45be e7a4 fe3e 2908 debd
000000f0: 187f 333f b6b0 cfbf 7db2 973f ea3e 193f
0.89705205 -0.49889776 -0.7949974 -0.019960761 -0.26310098 1.1297126 1.2126592 0.019578371
0.4064943 0.4270392 0.6361116 -1.5188693 1.068651 0.5598804 -0.49240386 0.9302887
0.49821404 0.9430764 1.2346237 0.54123485 1.2963964 0.47082195 -0.32196698 -1.1938187
-0.14143154 1.2318784 1.0502594 -0.6115015 -1.1813622 0.23476166 1.233312 -0.027453613
-0.9574526 -0.13194136 -0.48561305 1.2682668 0.5954587 1.8130066 -0.3301773 1.6685053
0.4119487 0.0028394465 -0.90461695 0.81882644 1.5529345 0.43958452 0.09290411 0.72612625
-0.23435403 1.7601008 0.7375276 1.3498698 -1.2548496 0.17753628 1.2721158 0.5831822
1.8300564 -0.19251224 0.49735186 -0.108414 0.70115805 -1.6225803 1.1851345 0.59861624

l2.bias f4 [8]
00000000: 2f56 823e e285 cd3e 8d3f e53d b2cc 173f
00000010: 3b4b 1f3f 2c07 0c3f 829b 393e 2a83 1a3f
0.25456378 0.40141207 0.11193762 0.59296715 0.6222417 0.54698443 0.18125728 0.6035639

l3.weight f4 [15, 8]
00000000: f918 a23e 2a43 d3bf af26 e6bd 41b6 35be
00000010: ee48 88bf 87e2 673e ccf3 e43d 069b fa3e
00000020: 74ed f3bf dd24 763f fcfe 08be 90a7 c5bf
00000030: 4813 19be 5e29 253e 1bfb 47bf 1b1f 42bd
00000040: 9f32 a13e e2d6 8fbf b21c 19c0 96e5 febf
00000050: 3b8e 3a3e 593a 193e a2ac ef3d d0b6 e13e
00000060: bf87 b5bf 941e 03c0 ad16 593f 020c 22bd
00000070: 409b cabd 52b7 95be 7a28 b63e 57c3 d8bf
00000080: 2af1 a13e 210b 93bf 2a14 a1bf 1b0d 1e3f
00000090: 1ce2 af3e ab4a 0dbf 3437 063f 83ee 90bf
000000a0: 3fbb 13c0 f600 d0bf 29b1 213e be65 6a3f
000000b0: 3fd5 aebf 571d cfbf b4cb 163f 0ad5 8cbe
000000c0: c196 40c0 e0b0 0cc0 a827 863e 9745 a1bf
000000d0: 950d 873e 1c09 073f d240 1abf 1aab f73e
000000e0: 879a 373f 2fc0 a03e 3b46 31bf de8f d4bf
000000f0: e5ea 99bf 0288 ea3e ff99 e7bf ca71 1d3f
00000100: 1835 223f 0975 ac3c df1e 8bbd 01f2 573d
00000110: f0b0 b3bd a756 073e e9d7 59bf e53f b3bf
00000120: ebb9 e2bf d171 b3be cb95 ecbe 046a e6bf
00000130: 6975 c03e b4c7 283f 382d 043f beef cebf
00000140: ea6a cabf 3a4a 113f d448 563f 7d19 90bf
00000150: f951 04c0 2950 9abe 88c5 bbbf 9b10 053f
00000160: ac7f fbbf a23c 3c3f 0003 4c3f 9d89 593e
00000170: 2017 8ebf 2f3b b2bf 9b51 88be d502 2cbf
00000180: 628b bcbe cb6c 5b3f 586f 1bc0 8abe 64bf
00000190: d827 353f 5970 a93e aa11 8cbf a8db 8dbf
000001a0: f557 7cbe 22ce fa3e e56f 59bf 74d8 f23e
000001b0: da47 81bf 9453 10bf 3127 2d3e b300 0b3f
000001c0: 13cb 273f ef9d d5bf c9c1 00c0 771d d0bf
000001d0: 004f 553f ce7b b63d bf60 323e 409f dabf
0.31659678 -1.6504872 -0.11237847 -0.17745306 -1.0647256 0.22645007 0.11179313 0.48946398
-1.905684 0.9615 -0.13378519 -1.5441761 -0.14948761 0.16129062 -0.7811753 -0.047392946
0.31483933 -1.1237452 -2.3923764 -1.9913814 0.18218319 0.14963664 0.11702849 0.44084787
-1.4182051 -2.0487413 0.84800225 -0.039562233 -0.09892893 -0.29241425 0.35577756 -1.6934613
0.31629306 -1.1487771 -1.2584279 0.6173875 0.34352195 -0.5519206 0.52427983 -1.1322788
-2.3083036 -1.6250293 0.15790237 0.91561496 -1.3658828 -1.6180829 0.58904576 -0.27506286
-3.0092013 -2.1982956 0.2620213 -1.2599362 0.2637755 0.52748275 -0.6025516 0.48372728
0.71720165 0.31396624 -0.6924779 -1.6606405 -1.2024809 0.4580689 -1.8093871 0.61501753
0.63362265 0.0210519 -0.067929976 0.052721027 -0.087739825 0.13216649 -0.8509508 -1.4003874
-1.7712988 -0.35047773 -0.46208033 -1.8001103 0.37589577 0.6592972 0.516315 -1.6166914
-1.5813878 0.56753886 0.83704877 -1.1257778 -2.0675032 -0.30139282 -1.4669657 0.5197846
-1.9648337 0.7353002 0.7969208 0.21243902 -1.1100807 -1.3924311 -0.2662476 -0.6719182
-0.3682509 0.8571288 -2.428671 -0.8935324 0.7076392 0.33093527 -1.0942891 -1.1082659
-0.24642928 0.48985392 -0.8493636 0.47430766 -1.0100052 -0.5637753 0.16909482 0.5429794
0.6554424 -1.6688823 -2.0118277 -1.6258992 0.8332367 0.089103326 0.17419718 -1.7079849

l3.bias f4 [15]
00000000: 867b 873e 2260 1cbd 4d40 0bbf 768e 51be
00000010: 9b78 c7bc f6e5 55be 27a3 f73c 640c afbc
00000020: e570 c63e 35b7 8bbe 38af fd3d 1a65 21bb
00000030: e391 453e 30b2 113d 3b27 36be
0.26461428 -0.038177617 -0.5439499 -0.20464501 -0.024349501 -0.20888504 0.030229164 -0.021368213
0.38758007 -0.27288213 0.12386936 -0.0024626912 0.19293933 0.035570323 -0.17788403
