chatbot/data.pth (torch, 11242 bytes, 6 tensors)

l1.weight f4 [8, 171]
00000000: 9c1e 85be c73d a5be d1f4 073f 7008 7c3e
00000010: 132f 17be 6211 9b3e 52f0 34be 33e2 f13e
00000020: 8022 033f 9b8a 473f 4e68 543e 5d03 77be
00000030: 2e10 a73d bb27 963f 26c1 463e 5def 97bd
00000040: d94c 7a3f 5695 013f 2766 d0ba 2883 2b3e
00000050: 5fdd b33e a776 85bd 2094 8fbe 2cfb b83f
00000060: 8996 2abe c6b1 3b3f 96c8 2cbe 9dba d43e
00000070: ce0f 6a3e 5597 7cbd 58c7 7cbe 8bdd d43e
00000080: 3a5d 563e dfcd fdbb d73f 033f da0b de3d
00000090: 15af 863e f741 a83c 4066 db3e f426 803f
000000a0: 9d93 19bf 875b cbbe d54c 53be 8a39 4f3f
000000b0: 48ed 0cbe 8fd1 803d 8f00 013f 06c5 23bd
000000c0: f2fc 603e 05dd 91be 808f 383f 082a 6abe
000000d0: 48b6 eb3e 2b9b 373f 694a 6f3e 69d1 b5be
000000e0: bb73 9ebe 37b7 ef3e 7101 b8bd 8d4b 9fbe
000000f0: 2f2e 4e3e e920 f13a a060 a03d ed8e 903d
00000100: 1ff2 5dbe 0013 423e 184a 803f 102e 93be
00000110: 29b5 b6be d9ce 943e 3fef 183d bacd 583e
00000120: 6c7a 80be 82b6 e13e 9782 3f3f 301a ce3d
00000130: 1323 dc3e 3410 9d3e caa5 6abe 3061 9fbe
00000140: 8925 d8be 8459 253f ee25 b83c 4f75 523f
00000150: c0fd 2bbf 3d6f b53e db3f 0f3f 2bff da3e
00000160: baf3 0bbf 6890 b33e 0bfc a33f 6fe0 f7be
00000170: bc8f 18be 3bb3 f73e 2b76 61bd b95d 933e
00000180: c0d2 663f 99d8 90bd 68d1 463f 60b2 be3d
00000190: 5738 f3be 1a25 05be 87ce ff3e c480 013f
000001a0: 4e56 1fbf f268 8e3d 580a 253f bf33 cf3e
000001b0: 6220 cabd a725 a4be 9d70 cb3e d3a7 2a3f
000001c0: c778 e93e 1618 6d3e 38b1 34be 49c7 a03f
000001d0: bf4f e3bd 52aa 18bf f694 b13d 55d6 85bd
000001e0: f4dd fcbc a084 05bf d086 8bbc 4818 193c
000001f0: c0e1 ccbe 05ca f23e a391 733f 8ada 173f
00000200: 0548 b7be cc0c 293e e7e4 0e3f 4ad3 153f
00000210: 1689 113f bef1 113f 642e 44be 2df4 7e3e
00000220: 1da0 893f 9ec6 28bc 74bb 4a3e b2f7 3e3f
00000230: 0891 593f 8f57 873e e70b 043f 99d5 f13e
00000240: 276a 613f 5bdb 183f e0f6 3e3f b531 b3be
00000250: 5a77 453e d37e e83c a606 15bf a1aa c5bd
00000260: e73d 7abd 6ff5 b8be 1f01 c83e 05ac 083f
00000270: 45ed 883e da50 c3bb 7f13 bdbe aa5b 29bf
00000280: 2380 1c3f dd21 0cbf ebd7 453e c1a2 a6be
00000290: c3f5 f83c a2ac abbd 0a2e 573f 08ee e9be
000002a0: ec61 17bf f3de 91be d520 883e 866e 6fbe
000002b0: 6e48 3ebe 5527 623e 7a54 c83e 6207 13be
000002c0: 8113 8f3b cdc8 b53c 2b1a f63e a1fb 873f
000002d0: b577 483f 0319 153e a186 1dbe 7e37 bf3e
000002e0: 6922 1e3f cda8 d93c c9f0 40bd 15e1 6f3f
000002f0: 3ef2 c9bd 974c 083f 43a2 323f c736 283f
00000300: 9f28 4f3f 59ce ddbd 4c2a aa3f ef58 6c3e
00000310: 5a71 633e b5c0 9c3e eb3f 003f a2b6 9c3e
00000320: 9fc4 13be c561 35bd d7b2 9a3e 3a22 c23e
00000330: c423 513f ab55 41be bef3 f1be 39d6 b73d
00000340: f61a 033f a028 463f 9c52 883f 0774 20bf
00000350: fd27 dabe d5c6 8ebe a08b dabe 498b 0fbf
00000360: 417e d8be 5744 77be db13 99bc e63c 043e
00000370: 4537 39be 9114 443f 027a 2ebc f0f0 d0be
00000380: 0e97 d8be ae19 91bd 0801 cdbe 8347 7dbd
00000390: 01c1 b63e a252 833e c77e 263e 0f13 5c3f
000003a0: 3055 573f fcde 493f d6f6 383f 5ccd 983d
000003b0: 1b99 17bd 3d50 d73e 3d06 f5bd cb1c afbe
000003c0: 8e8d 1f3e ac64 b2bd 8f85 d03e d9bb 6ebe
000003d0: 7eb2 86bc 01b8 2a3f ce99 5e3e 035b 2cbe
000003e0: 9821 093f d9f6 eabd 290a 813d 9585 04bf
000003f0: 7272 843d a9cb 033f d2dc b83e e115 00bf
-0.25999916 -0.32273695 0.53107935 0.24612594 -0.14764051 0.302867 -0.176698 0.4724289
0.5122452 0.7794587 0.20742914 -0.24122377 0.08157383 1.1730875 0.19409618 -0.07418702
0.9777351 0.50618494 -0.0015899584 0.16749251 0.3512983 -0.06516772 -0.28042698 1.4451652
-0.16658987 0.73318136 -0.16873392 0.41548625 0.22857592 -0.06166776 -0.24685419 0.41575274
0.20934 -0.007745489 0.51269287 0.10842104 0.26305452 0.020539267 0.42851448 1.0011888
-0.59990865 -0.39718267 -0.20634778 0.8094717 -0.1376239 0.0628997 0.5039148 -0.039982818
0.21971491 -0.28488937 0.72093964 -0.22867596 0.46037507 0.7172114 0.23368229 -0.3551133
-0.3094767 0.4681947 -0.0898465 -0.31112328 0.20134805 0.0018396649 0.0783093 0.07058511
-0.21674393 0.1895256 1.0022612 -0.2874608 -0.3568509 0.29064062 0.037337538 0.21172228
-0.250934 0.44084555 0.7480864 0.100635886 0.4299551 0.30676425 -0.22914806 -0.31128836
-0.42216137 0.64589715 0.022479024 0.8221025 -0.67184067 0.3543643 0.5595681 0.42772803
-0.5466877 0.3507111 1.2811292 -0.48413417 -0.1489858 0.4837893 -0.055044334 0.28782442
0.9016533 -0.07072563 0.7766328 0.09311366 -0.4750392 -0.13002434 0.49962255 0.50587106
-0.62241066 0.069536105 0.6446891 0.40469167 -0.09869458 -0.32059976 0.39734355 0.6666233
0.45599958 0.2315372 -0.17645729 1.2560817 -0.11099195 -0.5963489 0.0867099 -0.06535021
-0.030867554 -0.52155495 -0.017032057 0.009344168 -0.40015984 0.47419754 0.951441 0.5931784
-0.35797134 0.16508788 0.5581803 0.58525527 0.568498 0.57009494 -0.19158322 0.24897833
1.0751988 -0.01030126 0.1979807 0.74596703 0.84986925 0.2643399 0.5158066 0.47233275
0.880526 0.5970971 0.7459545 -0.3499886 0.1928381 0.028380787 -0.5821327 -0.096516855
-0.06109419 -0.3612475 0.39063355 0.5338748 0.26743522 -0.005960566 -0.36928937 -0.66155493
0.6113302 -0.5473917 0.19320647 -0.32546046 0.030390626 -0.083825365 0.84054625 -0.45689416
-0.5913379 -0.2849041 0.2658755 -0.23382005 -0.18582317 0.22085316 0.3912695 -0.14358285
0.0043663387 0.022190476 0.4806684 1.0623666 0.7830766 0.14560322 -0.15383388 0.37347025
0.61771256 0.026569748 -0.04710463 0.9370282 -0.09860657 0.53241867 0.6977884 0.65708584
0.8092136 -0.10830373 1.3294158 0.230808 0.22211209 0.30615774 0.5009753 0.30608088
-0.14430474 -0.044282693 0.3021457 0.37916738 0.816952 -0.18880336 -0.47256273 0.089764066
0.51213014 0.7740574 1.065021 -0.62677044 -0.42608634 -0.27886072 -0.4268465 -0.5607191
-0.42283824 -0.24147163 -0.018686226 0.12913856 -0.1808749 0.7659388 -0.010649206 -0.4080882
-0.42302746 -0.07084976 -0.4003985 -0.061835777 0.35694125 0.2564898 0.16259299 0.8596658
0.8411436 0.7885587 0.7225164 0.07461044 -0.037011247 0.42053404 -0.119640805 -0.34201655
0.15581343 -0.08710608 0.40726897 -0.23313846 -0.016442534 0.6668702 0.2173836 -0.16831593
0.53566885 -0.11472864 0.06300766 -0.5176633 0.06467141 0.51482636 0.36105973 -0.50033385

l1.bias f4 [8]
00000000: ba1f 4e3f 9e6f 5a3f ad64 373f 226f 563f
00000010: 4748 0e3f cee4 8f3f 062f 583f 3a5f 603f
0.8051716 0.85326564 0.71637994 0.83763325 0.55579036 1.1241701 0.8444675 0.87645304

l2.weight f4 [8, 8]
00000000: 90ae f93c 9f35 88be 2cb8 58bd 60fd eabd
00000010: aa1a 2ebe d0a8 aebe f7ee a5be 61ad efbd
00000020: 5f78 3e3f c09c c13f e2b3 b83f 262b e73f
00000030: 1c29 093f d6a6 c43f cae5 8dbf 57b2 ba3f
00000040: 172f e13e 48af 133f 6445 633f 9f66 77bf
00000050: ae4c a73f ea3a fcbf 81c1 af3d f20d db3e
00000060: 6342 523f 75a7 81be ffd2 57bf 5e41 89bf
00000070: 6c2b 97bf 5333 2b3f 50dd ab3f 084b b93f
00000080: db29 28bd d357 933f 9c04 4a3f 13b0 74bf
00000090: dd87 a03f 5ec9 4fbf 8afe 363f 5d57 553f
000000a0: 3e36 413f 5a35 efbd 9d9a fdbe 82c8 ad3c
000000b0: 2a20 733f 1f05 2a3f f0d8 ef3f 7d0a 64bf
000000c0: 7012 d33f 8bab a23f 9055 4e3e f149 87be
000000d0: 81fb babe 2785 0e3f 04d4 6f3e 92d9 0cbf
000000e0: e6ee 97bf f6ba 36bf 2c18 2c3f c85d aa3f
000000f0: 2f7c 8c3f 7d4f 7c3f c9a1 a83f 02b3 bf3f
0.030478746 -0.2660341 -0.052910015 -0.11474109 -0.17002359 -0.3411317 -0.32408878 -0.11702991
0.7440242 1.5125961 1.4429896 1.8060043 0.5357835 1.5363414 -1.1085751 1.4585675
0.4398124 0.5768933 0.88777757 -0.9664096 1.3070276 -1.9705479 0.0858183 0.42784077
0.8213255 -0.25323072 -0.8430633 -1.0723073 -1.1810126 0.6687519 1.3426914 1.4476023
-0.04105554 1.1511177 0.78913283 -0.9558117 1.2541462 -0.81166637 0.71482146 0.8333643
0.7547339 -0.11680098 -0.49532023 0.021213774 0.94970953 0.66414064 1.8738079 -0.89078504
1.6490002 1.2708601 0.20149827 -0.264236 -0.36520007 0.55671924 0.23420721 -0.55019486
-1.1869781 -0.7137903 0.67224383 1.330987 1.0975398 0.9855879 1.3174373 1.4976504

l2.bias f4 [8]
00000000: 8e7b 1abd ff4f 2cbb 0bf2 973e 3c20 3a3f
00000010: ecc3 87bd 6c18 353e b04b f83d 2b89 523f
-0.037715487 -0.0026292799 0.29676852 0.72705436 -0.06629166 0.17685097 0.12123811 0.8224055

l3.weight f4 [16, 8]
00000000: d2d8 2a3e 0aa8 373f 5c50 45c0 6e6f 88bf
00000010: d980 b1bf a3f4 afbe 23e6 0d3f fe05 e3be
00000020: b172 973e 8603 25bf 3a4a c1bf 4cc0 89bf
00000030: 1e59 90bf 53e2 933f 8fbb a4bf 3934 343f
00000040: cdb2 c3bd ea77 f8bf 4814 14c0 cca9 553f
00000050: 361c e9bd 17d4 fb3d a672 dabf 18ab 173f
00000060: 93e3 86be 88d9 debf 0f56 fcbf 9f98 3a3f
00000070: f617 19bf c2f6 423f 2802 5a3e 64c7 75bf
00000080: 942d fa3c 3e65 7cbf e3a2 153f 06ba 13c0
00000090: cff6 983e 84ff d23e beb1 d2bf 1916 be3e
000000a0: b62a 80be cd22 2cbe 6159 e3bf 320f 303f
000000b0: 9c84 59c0 df04 153f 5b9b 843e b071 3cbe
000000c0: 25e7 44be b427 a43e 0acc 053f 7a62 58c0
000000d0: 5b14 323e 3f04 a1bf a65c 02c0 37ce da3e
000000e0: 35d1 9fbe e2eb 7bbd d84d d13e cb5b 043f
000000f0: 2c8b 5bbe 3743 e6bf efac 80bc 7be3 29bf
00000100: 5a96 87be cafb 5b3e bf9f f4bf ac5b 043f
00000110: 1529 e1bf 0b0f cabe c82a 32c0 40b8 3f3f
00000120: d675 893e 4f71 34bf aa51 c73d b9c1 42bb
00000130: 8601 e2be 6413 263f 84cf 1b3f 135e 0bc0
00000140: 661a 36be 6c0c 0a3e c7ae edbf 6514 023f
00000150: c3f3 89bf f21a 05bd 1a78 2c3f 9a19 12c0
00000160: 64c2 413e f791 00be 27b4 efbc b0e1 05c0
00000170: ce93 123f 6337 413e 24c2 af3e e59e b7bf
00000180: 7a67 cf3d 1af5 97bf 75b1 6b3d 9f00 973d
00000190: 637a f93e eccc c53b 1965 dabe fe4c fbbd
000001a0: 04be 88be 0bd1 703f 8dc0 c0bf a66c 0dc0
000001b0: 1fd9 ccbf 7fd2 d5bf 840d 0cc0 ce6b 403f
000001c0: 2495 9a3c 8d4e 0a3f d9c3 b6bf 097d 51bf
000001d0: d88f 563e efee bb3c d4fb debe db32 f23c
000001e0: 7371 3d3c 1ee0 7b3e 7e63 f33e e2ac 27c0
000001f0: aafd eb3e 5da9 07c0 8788 b4bd cbb4 efbe
0.16684273 0.7174078 -3.0830297 -1.0659006 -1.3867446 -0.3436633 0.55429286 -0.4434051
0.2957969 -0.644585 -1.5100777 -1.0761809 -1.1277196 1.1553444 -1.2869738 0.70392185
-0.09555588 -1.9411595 -2.3137379 0.83462214 -0.11382334 0.12296312 -1.7066238 0.59245443
-0.263455 -1.7410135 -1.9713763 0.7288913 -0.59802186 0.7615777 0.21289885 -0.9600737
0.030539311 -0.98591983 0.5845167 -2.308229 0.298758 0.41210568 -1.6460493 0.37126234
-0.25032586 -0.1681015 -1.7761651 0.68773186 -3.3987188 0.5821056 0.25899777 -0.18402743
-0.192288 0.3206154 0.52264464 -3.3810105 0.17390577 -1.2579421 -2.0369048 0.42735454
-0.312143 -0.061504252 0.40879703 0.51702565 -0.21439809 -1.7989262 -0.015707461 -0.6636273
-0.26481897 0.21482769 -1.9111251 0.5170238 -1.7590662 -0.39464602 -2.7838612 0.7489052
0.26847714 -0.70485395 0.09732373 -0.0029717518 -0.44141787 0.6487334 0.6086352 -2.1776168
-0.17783508 0.13481301 -1.8568963 0.5081237 -1.0777515 -0.0324964 0.6737076 -2.2828126
0.1892181 -0.12555681 -0.029260708 -2.0918999 0.5725678 0.18868785 0.34327805 -1.4345366
0.101271585 -1.1871674 0.057542283 0.07373165 0.48726186 0.0060363915 -0.42655256 -0.122705445
-0.2670747 0.94068974 -1.5058762 -2.2097564 -1.600376 -1.6704863 -2.188325 0.75164497
0.018869944 0.5402611 -1.4278518 -0.81831414 0.2095331 0.02294108 -0.43551505 0.029565265
0.011562693 0.24597213 0.47536844 -2.619927 0.46091968 -2.119712 -0.08815103 -0.46817622

l3.bias f4 [16]
00000000: 80e2 db3c aa1b 6fbe 2b56 e73e af47 02bd
00000010: 22b9 72be 952e 9ebe 403a c5be 2241 763e
00000020: d01e 713e 542e bc3e 6f6f 02bf e28c e8bd
00000030: 82c5 97be c2ff cabd 69ae 81bd 44a5 49be
0.026841402 -0.23350397 0.45182928 -0.031806644 -0.23703435 -0.30894914 -0.38521004 0.24048284
0.2354691 0.36754096 -0.50951284 -0.11354996 -0.29642874 -0.09912063 -0.06332094 -0.1969195
