chatbot/data.pth (torch, 9898 bytes, 6 tensors)

l1.weight f4 [8, 142]
00000000: 3fa2 593d ec22 a73d aa02 63be 8fee 80bd
00000010: beaa 7fbf 7140 6d3e d0a2 4dbd cd6f 18be
00000020: f211 b83c 3151 0d3f 3133 ea3e 2fe1 2e3f
00000030: fbaa 413f badb c63e ce0f 003f 1851 933d
00000040: ac88 96be 521b 863f 6814 f1bc 1d7f cebe
00000050: fcdf 913e b3a1 c3be 579a c3be 765b 96be
00000060: 6946 0f3f 730d 1abe 978a 1fbf d80b 923c
00000070: 30fd f8bc 9018 98bd 0ac4 383f 6ef9 04bf
00000080: 1deb 1dbf 6793 3d3d e562 813f a062 063f
00000090: 5868 4ebf 9933 48be c300 283f 6b76 bf3e
000000a0: a0fb 163f 19a2 863f 8ab4 8dbe 986e d0be
000000b0: 410b b43e 7530 a1be 7b99 013f af90 f73e
000000c0: 6a03 073f f378 103f 21b1 f93e a2a3 8dbe
000000d0: 89bd 233f 8f37 003e 14c7 023e 9883 143d
000000e0: 958e c63d 8cd6 2fbe f01c 103f 24f5 2c3e
000000f0: c869 7fbf 184a 513f 7aa5 8f3e a712 1c3f
00000100: 6faa 843d 77eb 5bbe 1c38 6cbe f8ee cc3e
00000110: bce9 cb3e 6bf1 903f 4997 3a3d c6c6 a33e
00000120: c6b8 c83e 69ba 003f 5503 27be 696a 1f3f
00000130: 0fc6 8dbe c194 7fbf 7914 b03e bc32 eb3d
00000140: ff11 d33d 2436 52bd 3bfa 69bd 9df9 943f
00000150: a11d 783f fbab 7d3c 6c5e 6b3e 3c11 8e3f
00000160: 9264 533f 1db4 c3be e7b2 0e3f de6b c13e
00000170: 2f76 c33e da4a cf3e cce6 d83e 659a 593d
00000180: bb79 d53e 55fd 4b3d 317e 253f 0ac3 09bf
00000190: 7244 863e 44a9 b53e f49b 8dbe 9985 063f
000001a0: 59c8 153f 4ce4 363f 59a6 413f d039 3c3f
000001b0: 82d9 703e 3632 7aba 1b1b 7cbe b6f9 6fbe
000001c0: aca5 333e da47 3a3f 1081 6d3e fcef 533f
000001d0: d0b1 b7bd 2dac eb3e 43e9 ed3e 3369 cfbc
000001e0: c69c 5dbd 857f 153f f28d 593c 5ff2 d23e
000001f0: e4d2 083f f36f 9f3e e7db f73e 2c15 1b3f
00000200: 4604 93be f988 c4be 492a f73b 5ea8 1abe
00000210: 0dc6 363e 95bb ce3e 504d 7fbf 0823 093d
00000220: 178b 113f 7735 073f 3ff0 143f f288 c83e
00000230: fe88 393e b71f 9e3e 1b3f 703e a60b 6fbd
00000240: f646 11be 55b3 883e 8967 3b3f 503d 253f
00000250: 2b97 8a3e 1336 43be 81e0 d1be 16d7 1d3f
00000260: d4b6 f23e 89e9 793f 04a3 b5be ee27 af3e
00000270: ccee 213f 1832 003f fb79 763e 0c3d 9f3f
00000280: 5670 97bc 437d 6e3f 56ce 6a3e 39bb 35be
00000290: be64 3cbe 39b4 823e bb30 183f a95a a6be
000002a0: 51e5 19bf 5db2 de3c 9d06 663e b4bf 7b3e
000002b0: 9d05 113f 5739 54be a3d1 a1be ad33 0fbe
000002c0: ecab b2be bd31 0a3e 8b8a 6dbe d39f 84be
000002d0: e2fd 82be fc8e 45bf 480c 7ebe aaf3 b7be
000002e0: f8df 343e bc79 833c ba3c 623d ea6b 703f
000002f0: 2ce7 253f d7a2 113f 0f92 233f 6eef 143f
00000300: 17bf 183f 6b7c d03d a0d8 0e3f 174a f8be
00000310: 2293 cbbd 0f58 0ebe aa73 98bd 0e68 bebd
00000320: e97d 233f 1a9c 8d3e 6bd1 44bf 1900 90be
00000330: 46c9 093f 2ad5 f9bd 872e 9ebd 4bdc 8ebe
00000340: d487 ff3e 9e56 d83e c3e6 80be 2329 af3f
00000350: 26cb dcbc 9362 f8be 9a21 b93e e43b 4cbf
00000360: 3ce6 bc3e f9d8 d2be a9d8 693d 65c5 45bf
00000370: 7dd4 be3d 65a5 9cbd 44de 0dbe 310b 7abd
00000380: abe1 17be e818 55be 48fb e9be 4da7 febe
00000390: 4608 7fbe bedc c4be 8437 203f 9bb7 4cbe
000003a0: 90b8 0b3f b96f 143f 276d 0e3f 9d1d 1a3f
000003b0: 26fd 48be c653 00bc e30a 2dbe ddff b0bd
000003c0: 6bcb b8be 2955 2a3e 89a8 7cbc 69f2 8c3e
000003d0: 932a f839 4a5c 213f be17 2f3f 23cc 3dbe
000003e0: bf5a 303f e491 bdbd 9ed2 bfbe af21 3f3e
000003f0: 14d9 f5be fff3 f1bd 2a85 f7be 03ad 3b3f
0.053133246 0.08160958 -0.22168985 -0.062955014 -0.99869907 0.23169114 -0.0502041 -0.14886399
0.022469494 0.55202013 0.4574218 0.6831235 0.7565152 0.38839513 0.50024116 0.07193202
-0.29401147 1.0477087 -0.029428676 -0.40331355 0.284912 -0.38209304 -0.3820369 -0.29366654
0.5596681 -0.15044193 -0.62320846 0.017827913 -0.030394167 -0.0742656 0.7217413 -0.519431
-0.6168688 0.046283152 1.0108305 0.5249424 -0.80627966 -0.19550933 0.6562616 0.37395033
0.589777 1.0518218 -0.27676803 -0.40709376 0.35164836 -0.31482282 0.5062482 0.48352572
0.52739584 0.56434554 0.4876795 -0.27663904 0.6396108 0.12521194 0.12771255 0.03625831
0.09695164 -0.17171687 0.56294155 0.16890389 -0.99770784 0.81753683 0.28055936 0.6096596
0.0647782 -0.21476541 -0.23068279 0.4002607 0.39826763 1.1323675 0.045554433 0.3198759
0.3920347 0.5028444 -0.16309865 0.62271744 -0.2769017 -0.99836355 0.3439062 0.11484286
0.10306167 -0.051321164 -0.057123404 1.1638676 0.9692021 0.015482898 0.22985238 1.109901
0.82575333 -0.38223353 0.55741733 0.3777761 0.38176104 0.40486795 0.42363584 0.053125758
0.41694435 0.049802143 0.6464568 -0.5381323 0.26224095 0.35480702 -0.27658045 0.52547604
0.5850883 0.71442103 0.7564445 0.73525715 0.23520473 -0.0009544225 -0.24619715 -0.23435101
0.17543668 0.72765887 0.23193765 0.8278806 -0.08969462 0.46029797 0.46467027 -0.025318718
-0.05410459 0.58397704 0.013278471 0.4120054 0.53446794 0.31140098 0.4840996 0.6057918
-0.28714198 -0.38385752 0.0075428826 -0.1510329 0.17848988 0.4037749 -0.99727345 0.033480674
0.5685286 0.52815956 0.58179086 0.3916698 0.18118665 0.30883572 0.23461573 -0.05836072
-0.14187226 0.2669932 0.7320486 0.6454668 0.27068457 -0.19063596 -0.40991595 0.6165632
0.47405112 0.9762197 -0.35475934 0.3421015 0.63255 0.50076437 0.2406997 1.2440505
-0.018486183 0.93159884 0.22930273 -0.17747201 -0.18397805 0.25528124 0.59449357 -0.32491043
-0.60115534 0.02718466 0.2246346 0.24584848 0.5664919 -0.20724998 -0.31605253 -0.13984556
-0.3489679 0.13495536 -0.23197381 -0.25903186 -0.25584322 -0.771713 -0.24809372 -0.35928088
0.17663562 0.016049258 0.055233695 0.93914664 0.64805865 0.568891 0.6389474 0.5817784
0.5966658 0.10179981 0.55799294 -0.48494026 -0.09940173 -0.13900779 -0.07443936 -0.092971906
0.63864 0.2765816 -0.76882046 -0.28125075 0.53822744 -0.12198861 -0.07723718 -0.27902445
0.49908316 0.42253584 -0.25176057 1.3684429 -0.026952337 -0.48512706 0.36158448 -0.79778886
0.36894405 -0.41181162 0.05709139 -0.77254325 0.09317873 -0.07648734 -0.13854319 -0.06104583
-0.14832179 -0.20810282 -0.45699525 -0.49737015 -0.249055 -0.38449663 0.6258471 -0.19991915
0.54578495 0.57982975 0.55635303 0.60201436 -0.19627818 -0.007832473 -0.16898684 -0.08642552
-0.36092696 0.16634049 -0.015421041 0.27528694 0.00047333966 0.63031447 0.683956 -0.18534903
0.6888847 -0.09256342 -0.37465376 0.18665193 -0.4801718 -0.11814117 -0.48343784 0.7331087

l1.bias f4 [8]
00000000: c65c 7e3f 30a8 443f 247f 6f3f bb0d 363f
00000010: 22ea 8a3f 1f46 593f 6160 453f c696 6c3f
0.9936031 0.76819134 0.93553376 0.711147 1.0852702 0.8487262 0.7710019 0.9241756

l2.weight f4 [8, 8]
00000000: 20be 8e3e 4f6a 5a3f 7103 adbf f1b4 083e
00000010: d49d e93f f344 f53f 6c12 7d3f 5fd0 143f
00000020: 5297 4bbd 348c 303f 101c 7d3f bd01 bf3f
00000030: 87ac e2be 6532 8abf a7ea 473d 99bf 273f
00000040: a066 babe 6d9a 96be 42e2 4fbe 3fba 84be
00000050: de6a 883e 16fb 6abe 658f 68be d068 4fbe
00000060: 4a70 29bf b3ba e53f 0e0b 003f 484c 8b3f
00000070: 4343 c53f e4e8 ffbe 39d0 44bf 9c98 a13e
00000080: 0b7e b7bf f775 073f 2011 633f ea98 783f
00000090: aae7 993f 6478 f4be ad64 41be 035f 863f
000000a0: d75b 36bf 470a 0cbf 7ce8 423f 0932 d13f
000000b0: 1282 0ebf 474a e5be a101 e33f 9762 bb3f
000000c0: 5b63 a5be f4c7 a4bf 2305 593f 46f0 cabe
000000d0: 4ec7 363f 9816 dc3f a075 8e3f 27b4 d23f
000000e0: 1d16 1240 67df 823f 836a 0e40 8ae2 8f3f
000000f0: 1311 803e b7a6 abbe 5779 aabf d299 1ebf
0.2787943 0.85318464 -1.3516675 0.13350274 1.825129 1.9161667 0.98856235 0.5813045
-0.049704857 0.68963933 0.98870945 1.4922405 -0.44272253 -1.0796629 0.048807766 0.6552673
-0.36406422 -0.29414693 -0.20301154 -0.25923344 0.26644033 -0.22947344 -0.2271095 -0.20254827
-0.66186965 1.7947601 0.5001687 1.0882654 1.5411152 -0.4998237 -0.7688022 0.31561744
-1.433534 0.52914375 0.88698006 0.9710833 1.2023823 -0.477481 -0.18886061 1.0497745
-0.71233886 -0.5470318 0.76135993 1.6343395 -0.5566722 -0.44783232 1.7734872 1.4639462
-0.32302365 -1.2873521 0.84773463 -0.3963644 0.71397865 1.7194395 1.1129646 1.6461228
2.2825997 1.0224427 2.225251 1.1241009 0.25013027 -0.3352563 -1.331828 -0.6195346

l2.bias f4 [8]
00000000: a499 683f dee1 abbd d203 1dbd fd0e 8b3d
00000010: 6009 8d3e feea cc3e 3348 2d3f f7eb 503f
0.90859437 -0.0839269 -0.03833372 0.06789968 0.27546215 0.40023035 0.6768829 0.81610054

l3.weight f4 [15, 8]
00000000: 3ee2 683e 77cc 04bf 7de9 513b 6740 d33e
00000010: 531c d03d 46ec e9be 3628 b4bf c5c4 873e
00000020: 8cb0 d03d 12b3 03c0 4656 f9bd 45a2 2cbf
00000030: 7395 813f e91c 573e bd8c c03e d92f 4ac0
00000040: dcfa 36be 1f6d 2c3f 4671 8ebb c25d 31c0
00000050: a873 4dbf a23b 7f3f 838b bc3c ed4c 30c0
00000060: 3f09 5e3f a422 a4bf aeb8 66be a967 19c0
00000070: b8f0 b6bf afc2 d2bf d3f3 743f 7b55 cebf
00000080: bfc2 d6be c2ad e8be 7ce5 aa3e 4eaa 4bbf
00000090: f44a 1ec0 227d 9dbf 85fe 31be 8992 a53f
000000a0: 1301 553e 0bd6 36bf 90fa 363e fe96 843f
000000b0: b644 5b3f 6dfa 44bf c363 03bf 2754 16c0
000000c0: cb08 adbf 1406 d73d 1c1e 96be a227 b2bf
000000d0: 90d7 86be 62de ec3e 98ce 2bbf 27ef ca3e
000000e0: cc8b 1cbf a319 4bbf d194 9c3d 95ad 97be
000000f0: 0e48 883e 0494 d2bd 7dad e23e 883d a6be
00000100: f401 cfbe e240 0ebf f206 31be 9dfc 15c0
00000110: 3d8d 17c0 1341 0b3f 84d9 f73e fc81 0bbe
00000120: f808 a6bf 25e1 573f f07e 353e 8575 57bf
00000130: 1a62 1a3f ad60 593f cabf c5be d92f c2bf
00000140: 28ec e63b aa3c 05c0 4a7c a63e 8e23 dabf
00000150: f854 0ec0 ea2c 2a3f 59df 553f e472 17c0
00000160: 559d ccbf f375 b83e 6bef afbd bce7 adbd
00000170: 6e00 3bbc 5ddf 04be a708 22c0 42d8 223f
00000180: d6b3 68bf c0cc 13be 6d72 c63d a070 3b3f
00000190: d5fd 863e b8e0 42c0 816b 2cc0 d77f 603f
000001a0: 756d 133f 6b15 0bc0 ddf4 81bc 1291 083f
000001b0: 3195 a4be 0ac8 d8bf 01cd a5be 2216 403e
000001c0: 795e b7bf 43bc e43e 9c67 9dbe 494d 093f
000001d0: 8940 673f fb49 7fbe 1c42 4dbf b4a4 c2be
0.22742555 -0.5187449 0.003203004 0.41260073 0.101616524 -0.45688075 -1.4074771 0.2651731
0.10189924 -2.0578046 -0.121746585 -0.67435104 1.0123733 0.21007122 0.37607375 -3.1591704
-0.17869133 0.67354006 -0.0043469993 -2.7713475 -0.802546 0.9970037 0.023015743 -2.7546952
0.8673286 -1.2823071 -0.22531387 -2.396952 -1.4292212 -1.6465663 0.95684546 -1.6119837
-0.41945454 -0.45445067 0.33378208 -0.7955674 -2.4733248 -1.2303813 -0.17382248 1.2935344
0.20801191 -0.71420354 0.1786902 1.0358579 0.8565172 -0.7694462 -0.513241 -2.3488863
-1.3518308 0.10499206 -0.29319847 -1.3918345 -0.26336336 0.46263415 -0.6711211 0.39635584
-0.61150813 -0.79335994 0.07645572 -0.2962462 0.26617473 -0.10282138 0.44272986 -0.3246882
-0.40431178 -0.55567753 -0.17287806 -2.3435433 -2.3679955 0.5439617 0.4840814 -0.13623804
-1.2971487 0.8432792 0.17724204 -0.84163696 0.6030594 0.8491314 -0.38622886 -1.5170852
0.007047195 -2.0818276 0.325167 -1.70421 -2.223936 0.66474783 0.83543926 -2.3663874
-1.5985514 0.36027488 -0.08590587 -0.084914654 -0.011413677 -0.12975831 -2.531778 0.63611233
-0.9089941 -0.14433575 0.09689794 0.7321873 0.26365533 -3.0449657 -2.6940615 0.8769507
0.57588893 -2.1731822 -0.01586383 0.5334636 -0.32145074 -1.6936047 -0.32382968 0.18758443
-1.4325706 0.44674882 -0.3074311 0.5363355 0.9033285 -0.24930565 -0.80179 -0.38016284

l3.bias f4 [15]
00000000: abc0 91bc 9bde 3c3e 6f95 2e3e 0a5d 373f
00000010: 8c62 e03e 2598 41be 5bea 8abe f148 2ebf
00000020: 808b e93e 0d02 8fbe d6c4 92be cbb1 1fbe
00000030: 719e a9be 057d 7c3d 4ca0 e6be
-0.017792067 0.18444292 0.17049192 0.7162634 0.43825185 -0.18905695 -0.27131924 -0.6808005
0.45614243 -0.27931252 -0.286658 -0.15595166 -0.33128694 0.061642665 -0.45044172
