chatbot/data.pth (torch, 9898 bytes, 6 tensors)

l1.weight f4 [8, 141]
000000 12 eb 84 3e da 5d cd 3c 65 c1 db 3e ea 73 78 3e
       0.25960594 0.025069166 0.42920986 0.24262968
000010 33 5a 9e 3f ce ec 0f bd e4 ec ae 3e cf 0d 1f 3f
       1.2371277 -0.035137944 0.34165108 0.62130445
000020 36 1b 06 3f a0 0a 4e 3e 40 f6 02 be 54 35 b4 3d
       0.5238527 0.2012124 -0.1278925 0.08799234
000030 bd 11 29 3f 09 8d 8b 3f ad 01 4f bd 1c 17 e3 3c
       0.6604269 1.0902416 -0.050538708 0.02772098
000040 02 83 1f bf 10 35 d1 3e 4c 4d fb be 2c 07 12 be
       -0.6230928 0.40860796 -0.4908241 -0.14260548
000050 44 00 c1 3e 60 9c d3 3e 97 5d 0c bd 97 67 97 3f
       0.37695515 0.41330242 -0.03426894 1.1828488
000060 b0 f7 48 be b7 88 35 3f dc 7b 4d bd 2e 8e 9f 3e
       -0.19625735 0.70911735 -0.05016695 0.31163162
000070 f0 3d c8 3e 99 64 d4 be f3 eb d7 3e 3a fb 01 3f
       0.39109755 -0.41483 0.42172202 0.50773966
000080 69 e3 33 be f6 9e be 3e ee 47 89 be ec 91 a4 3e
       -0.17567219 0.37230653 -0.2681269 0.3214258
000090 cf 54 2c be 21 31 23 bc 96 34 12 bf de 2b 17 3e
       -0.16829227 -0.009960444 -0.5711149 0.14762828
0000a0 04 50 e7 3e ff c1 5c 3c a6 9a eb 3d 6c 9e 30 be
       0.45178235 0.013473987 0.11504106 -0.17247933
0000b0 6b 97 15 bf 21 64 ee 3e 00 a5 9a 3f e9 40 89 3f
       -0.5843417 0.46560767 1.2081604 1.0722934
0000c0 f3 f3 86 3f b1 d7 87 3f 5f 87 37 3c 9a c3 05 3f
       1.0543197 1.0612699 0.011201709 0.5225159
0000d0 46 fe 22 3f ea 0d dc bd 2d 66 44 be a6 17 6c bd
       0.6366924 -0.107448414 -0.19179602 -0.05763974
0000e0 7c 78 4d 3e a4 4e f9 3e 68 a0 37 3e d4 b5 08 3f
       0.20065492 0.4869281 0.17932284 0.5340245
0000f0 e2 08 43 3e 78 71 9c 3e 0e a7 8e 3e 99 99 b5 bd
       0.19046357 0.3055532 0.27861828 -0.08867187
000100 b9 f9 d5 bd 9c 00 07 3f 0f d9 3c 3f 68 93 c9 3e
       -0.104480214 0.52735305 0.73768705 0.39370275
000110 5b 7c 95 3f 21 94 8b 3e cb 05 a2 be a7 94 69 be
       1.1678575 0.2726145 -0.31645045 -0.22810613
000120 91 d4 f8 be 62 90 cd 3e 9b c7 c3 be 29 20 c9 bc
       -0.48599675 0.40149218 -0.38238224 -0.024551468
000130 81 c8 6f 3f f8 9e 24 be aa fd ec bc 10 80 6d be
       0.9366532 -0.16076267 -0.02892955 -0.23193383
000140 0d c1 9f 3e 9b f8 b7 3e 2c 8d 85 bf 5c 23 e7 3e
       0.31201974 0.35931858 -1.0433707 0.45144165
000150 a5 0e e0 bc a7 8b 16 be cb a8 89 bf c2 30 d7 be
       -0.027350733 -0.1470171 -1.0754637 -0.42029387
000160 39 ef d1 3e 9f 9b 83 3f 4c 21 9c 3d e3 95 d7 3e
       0.41002825 1.0281867 0.076235384 0.42106542
000170 02 b7 19 bd f8 7b 53 bd 0f 88 78 3e 6d 61 9d bd
       -0.037528045 -0.051631898 0.24270652 -0.07684598
000180 c1 55 46 3d d7 e1 b1 be 78 90 07 bd 70 46 9a 3c
       0.048421625 -0.34742615 -0.03309676 0.018832415
000190 e7 5a ea bd 02 8e eb 3d 4f 67 87 3f d6 36 ee 3e
       -0.114431195 0.11501695 1.0578402 0.46526212
0001a0 f9 39 ab bd 8b 62 ae be 17 a9 eb bd 85 f0 b0 be
       -0.08360667 -0.34059557 -0.11506861 -0.34558502
0001b0 d4 86 81 3e df f8 c8 3e e3 6b ba 3e 74 6e 44 be
       0.25298178 0.39252374 0.36410436 -0.1918276
0001c0 ec 74 b1 3f 61 62 23 be 10 b2 1d bf 85 1b 91 3e
       1.3863807 -0.15955497 -0.61599827 0.28341308
0001d0 42 0d 38 3c 3a 8b 72 bd 34 67 e5 3d dd 73 70 3e
       0.01123363 -0.059214808 0.11201325 0.23481698
0001e0 44 a7 4e 3e c0 f0 54 3e 81 b4 02 3e 6a 30 fc 3e
       0.20180994 0.20794964 0.1276417 0.49255687
0001f0 70 f1 0f 3f 27 08 4a 3e 59 85 ba 3e 21 5f cb be
       0.5622778 0.19729672 0.3642986 -0.39721015
000200 c3 77 48 3e ec 91 0f 3e 6c 05 60 3e 6a a6 ce be
       0.19576935 0.14020509 0.21877068 -0.4036134
000210 90 ab 5f bf ab 2d 9e 3f 79 d2 6c be c9 4a 99 3f
       -0.8737116 1.2357687 -0.23127164 1.1975948
000220 cf 1f 8e 3f d7 35 75 3c 06 7a cb be fb 5c e9 bd
       1.1103457 0.01496645 -0.39741534 -0.11394688
000230 6e a6 cb be 7d 70 92 3e d8 cf fd bd 75 d9 e3 3e
       -0.39775413 0.28601447 -0.12393159 0.44501844
000240 26 94 69 3e ce fd 8f 3f 35 68 b0 be 59 f1 f0 3e
       0.2281042 1.124933 -0.34454504 0.47059134
000250 85 7f f1 be c6 4d 21 3f 94 58 ae 3e ab 3d b0 bd
       -0.47167602 0.630093 0.34051955 -0.08605512
000260 46 b8 5b 3e 0a e9 89 3e 63 4d fc 3e c0 a3 3f be
       0.21457013 0.26935607 0.4927779 -0.1871481
000270 5d ba 62 3d 64 cd 18 bf bb b2 73 bc ed dc b9 be
       0.05535351 -0.596884 -0.014874156 -0.36301365
000280 5d ec d4 3c bd 51 9c 3e 78 52 c2 3e 83 d1 4f 3d
       0.025991613 0.3053111 0.37953544 0.050736915
000290 a7 b6 d2 3e 47 6e 3d 3e 4d 3c 25 bf 0d ec 95 bd
       0.41154978 0.18499099 -0.64545137 -0.07320414
0002a0 a3 22 53 3e 65 55 c8 3e 72 32 31 3e e7 0c 1d be
       0.20618682 0.3912765 0.173044 -0.15336953
0002b0 8d fb ff be a3 b0 97 be 4d 26 1d 3f 4d 0e 52 3e
       -0.49996606 -0.2962695 0.6138657 0.20513268
0002c0 e3 31 9e 3f f9 cb 50 3e d4 a2 c2 3e d4 2a 66 bf
       1.2358974 0.2039031 0.38014853 -0.899091
0002d0 b9 22 68 3e 89 33 06 3f 36 58 93 bd 8e 00 32 3e
       0.22669496 0.52422386 -0.07194559 0.17383024
0002e0 e5 de 59 3e 01 f5 d3 be 43 df 20 3f 64 c1 b1 3e
       0.21276434 -0.4139786 0.6284067 0.34717858
0002f0 03 06 0a 3f 1f 4b 16 3f d1 f5 13 3f e0 ca ce bd
       0.53915423 0.58708376 0.5779696 -0.10097289
000300 8d 9f 15 3f 9c cd b2 be 46 3b d1 bd be c7 97 be
       0.5844658 -0.34922493 -0.10216384 -0.2964458
000310 37 9f e3 bd 7c 7a 81 bd 3f c4 3a 3f ae b4 9f be
       -0.11114352 -0.0632219 0.729557 -0.31192535
000320 0e a9 a6 3f 2b d3 61 3e db 46 bf bd ae 93 a5 3d
       1.3020341 0.2205321 -0.093396865 0.08084808
000330 b7 a8 c2 bd 73 7e 86 3e 91 7c 04 3f 33 ca 87 3e
       -0.09504836 0.26268348 0.51752573 0.26521453
000340 cc 2a d3 3c a0 34 ab 3f cd bd a9 bd 8e cd 72 3e
       0.025777243 1.3375435 -0.08288155 0.23711225
000350 13 ad 7f 3d fd 6b 80 be 3f 2e 90 3e 48 bc a9 be
       0.062420916 -0.2508239 0.28160283 -0.3315146
000360 fc fb f5 bd 4c a5 66 bf 56 4e a1 3d 62 60 ca bd
       -0.12010953 -0.90095973 0.078762695 -0.09881665
000370 ff ac 97 be 7c e3 57 bc 71 a2 7f be 56 a0 3e 3f
       -0.29624173 -0.013176795 -0.2496431 0.74463403
000380 2b 6d 0f 3f 2c 8b 97 be 67 b0 57 bd cc ef 36 3f
       0.5602595 -0.29598367 -0.052658465 0.7145965
000390 0a 88 6b 3e 93 d1 b0 3e ef 67 0f 3f f9 83 27 3b
       0.23001114 0.34534892 0.56017965 0.002556084
0003a0 64 35 14 3f b5 e1 9e 3e 64 a1 4f bc cf cb 93 bd
       0.5789397 0.31031576 -0.012672756 -0.07216608
0003b0 f5 a8 0b 3e 4c 2d 30 be e7 b3 ce be af c7 28 be
       0.1363867 -0.1720478 -0.4037163 -0.16482423
0003c0 92 23 84 3e a0 3e 5d 3d 42 dc 5a 3e 3a f5 1b 3f
       0.25808388 0.054014802 0.21373084 0.6092106
0003d0 b5 65 1f 3f f0 e4 e5 3e b1 85 84 be 78 a0 b7 3e
       0.6226457 0.44901228 -0.25883248 0.35864615
0003e0 dd 71 e2 bd 7b 27 9d 3e e1 27 a7 be 56 b4 b5 bd
       -0.11056874 0.30694184 -0.32647613 -0.08872287
0003f0 64 0a 92 be 49 b9 d4 3e 60 76 d9 bd 79 16 c4 be
       -0.28523552 0.4154761 -0.10618281 -0.38298395

l1.bias f4 [8]
000000 86 be 75 3f 4f f0 63 3f 1c c9 01 3f 1d 0f 67 3f
       0.9599384 0.89038557 0.50697494 0.90257436
000010 c2 89 5c 3f 09 11 98 3f 87 ae 8e 3f d1 0c 4a 3f
       0.861477 1.1880199 1.1147012 0.78925806

l2.weight f4 [8, 8]
000000 14 4d 46 3e 13 66 69 3e 41 12 78 be fe 42 9f be
       0.1936534 0.22792844 -0.24225713 -0.31105798
000010 50 63 bc 3d 27 e9 8c be d2 8c 98 be 95 06 83 be
       0.0919863 -0.2752163 -0.29794937 -0.2559096
000020 b9 08 ef 3f d3 e3 dc 3f c3 de bc bf 2d bb a4 3f
       1.8674537 1.7257026 -1.4755481 1.2869622
000030 c4 dc 25 be 6b 9d 11 3e 59 e9 b9 3f 60 89 b5 bf
       -0.16197497 0.14220206 1.4524337 -1.4182549
000040 76 31 52 3f 00 87 3f bf 5a cd 92 bf 8b 2f 2e bf
       0.8210672 -0.7481537 -1.1468918 -0.68041295
000050 0b 98 80 3f 20 77 9e 3f f8 35 6c 3f a7 6b 0e 40
       1.00464 1.2380104 0.9226985 2.2253206
000060 89 4f 8e be fb 67 0c be 2d 45 c8 3f 01 8b 84 3e
       -0.27795056 -0.1371154 1.5646111 0.25887302
000070 38 87 f4 bd d7 1d 3e 3f 73 d3 77 be 3c 4b 84 3e
       -0.119398534 0.7426428 -0.24201755 0.2583865
000080 8c 58 6b bf 6b 0a d7 3d f8 e2 e0 3f 82 29 22 3f
       -0.91931987 0.10500034 1.7569265 0.63344586
000090 d6 b9 de be 39 21 20 3f 18 00 c5 3f b4 05 43 3f
       -0.43501157 0.62550694 1.5390654 0.7618058
0000a0 b4 d6 7c 3f f0 cb b4 bf d0 00 9a 3f 68 52 df bf
       0.9876511 -1.4124737 1.2031498 -1.7447023
0000b0 6f 66 e8 3f 65 b2 a1 3f be 0a b7 3f c5 6d 44 bf
       1.815626 1.2632567 1.4300153 -0.76729995
0000c0 4a cd 9b 3f 88 1e c1 3e b1 93 40 bf 61 25 55 3f
       1.2172024 0.37718606 -0.7522536 0.8326016
0000d0 f5 aa a4 3e 29 a1 cf 3f c9 c7 d2 bf 72 cf b3 3f
       0.3216168 1.6221057 -1.646722 1.4047682
0000e0 07 bb 46 3f a2 50 90 3f 12 96 32 3f 12 38 86 3f
       0.7762913 1.1274607 0.6976024 1.0485861
0000f0 08 23 df bf 57 70 98 3f 7e f7 69 3f 30 c6 65 bf
       -1.7432566 1.1909283 0.9139327 -0.89755535

l2.bias f4 [8]
000000 3f 53 60 be 2f 24 cf 3e e9 10 17 3f 21 52 0a bf
       -0.21906756 0.40457293 0.5901018 -0.5403157
000010 8a 7f ae 3e a4 5c c7 3e 23 dd 60 3e a1 ba b7 3d
       0.3408168 0.38937867 0.21959357 0.089711435

l3.weight f4 [15, 8]
000000 e1 3d 23 3e 30 8f 0d bf 4d 09 c6 bd 4b fc a7 bc
       0.15941574 -0.5529661 -0.09669743 -0.020506045
000010 a0 bc cb 3e 9f 9b 0b bf 17 7f 01 bf 97 18 28 3e
       0.39792347 -0.54534334 -0.5058455 0.1641563
000020 1a 3f 87 3e b9 f0 00 3e 31 d7 f0 bd 45 36 01 bd
       0.2641533 0.12591828 -0.117597945 -0.031545896
000030 9f 3b 40 3e 3d 7d 3e c0 f5 04 44 3d 09 09 e4 3e
       0.18772744 -2.976394 0.04785629 0.44538143
000040 04 c5 c7 bc 66 df be 3d bc 5f f9 bf 07 37 89 3f
       -0.024385937 0.093199536 -1.9482341 1.0719918
000050 b8 a5 55 3f 11 7e 20 c0 33 19 ed bf 23 e5 43 3f
       0.8345599 -2.5076945 -1.8523315 0.7652151
000060 7d ad ac 3d e1 4d 04 c0 53 82 45 be 1f f6 7c 3d
       0.08431528 -2.0672534 -0.19287996 0.061758157
000070 64 6a 8f 3d 7e 09 73 3f 67 4e ea bf 78 4c ce bf
       0.07002714 0.9493636 -1.8305176 -1.6117086
000080 0c 6d 9e bd e0 2d 07 3f de bb b5 be 8d a9 51 c0
       -0.07735643 0.52804375 -0.35494894 -3.2759736
000090 54 d7 89 3d e9 a2 b9 bd ad 58 26 c0 74 ea b5 3e
       0.06730524 -0.09064276 -2.5991623 0.35530436
0000a0 e9 6b 1c be a5 cd c1 bf ef f9 4f 3f 9d 36 5a c0
       -0.1527554 -1.5140883 0.81240743 -3.4095833
0000b0 c6 af 04 3f 93 18 c5 bd f3 b4 d1 bf ae cb 03 c0
       0.5183071 -0.09623828 -1.6383346 -2.0593066
0000c0 d2 d5 a9 3e 0c a6 84 3e 83 9f 97 3e 96 99 3a c0
       0.33170944 0.25907934 0.29613885 -2.9156241
0000d0 4c ac e6 bd 87 be 76 c0 34 2d 75 3f 7f c0 ce bf
       -0.11263332 -3.8553789 0.957721 -1.6152495
0000e0 d7 08 83 3e a6 db 07 c0 71 96 26 3f c9 48 81 3f
       0.25592682 -2.1227813 0.65073305 1.0100337
0000f0 67 f9 15 3e ba 3c d8 bf 8e 7b 47 3f 90 55 0c c0
       0.1464592 -1.6893532 0.77922904 -2.1927223
000100 53 15 f8 bd e4 77 3d c0 5c 23 cc bf 52 98 29 3f
       -0.12113442 -2.9604425 -1.5948291 0.6624805
000110 11 b9 1f 3f 50 fa de 3d ff 0f 19 c0 fd a1 e5 3d
       0.62391764 0.10887587 -2.3916013 0.112125374
000120 8b 55 8d 3d 77 2a 23 c0 08 f1 06 3e 09 1b 36 3f
       0.06901082 -2.5494668 0.13177884 0.71135
000130 90 d6 0d c0 0c 46 47 3f 1a 40 0d 3f c0 53 b2 bf
       -2.2162209 0.7784126 0.55175936 -1.3931808
000140 cc c6 7c 3e 86 3c 55 bd 10 93 26 3e 47 2a 57 c0
       0.2468521 -0.052059673 0.16267037 -3.3619554
000150 f4 35 0a bf ab 4f 29 3f 85 5e da bf d8 2e d6 bf
       -0.53988576 0.6613719 -1.7060095 -1.6733046
000160 38 4d 6d be 58 d8 0a c0 21 69 cc be 79 be 8b 3f
       -0.23173988 -2.1694546 -0.39923957 1.0917503
000170 b4 64 fa 3e 24 1a 37 c0 06 0f 98 3e 48 e5 0d 3f
       0.48904955 -2.8609705 0.29698962 0.5542798
000180 85 ea 23 be 8b 7e 8c 3f 23 31 47 bf 3c 36 3a c0
       -0.16007431 1.0976118 -0.7780935 -2.9095602
000190 01 44 ea bd 5e c6 2d c0 b6 0d d2 bf c0 69 26 3f
       -0.11438752 -2.7152324 -1.6410434 0.6500511
0001a0 63 55 a0 bd c6 de 10 bd 8f 69 a7 3e ab 12 92 bd
       -0.07828786 -0.035368703 0.32697722 -0.07132467
0001b0 6b f0 7e bf b0 4a f9 be 19 3b 3e 3e a0 bd 0b be
       -0.995856 -0.48689795 0.18577231 -0.13646555
0001c0 db 06 82 be 4b 4a 1e 3f c8 f0 94 bf 0d 5c 5b c0
       -0.25395855 0.6183211 -1.1635981 -3.4274933
0001d0 4d d8 c0 bf 12 c8 1b c0 7b 9f 5f 3f 23 16 1d 3f
       -1.506601 -2.4340863 0.8735272 0.613619

l3.bias f4 [15]
000000 e1 10 88 be ce 3f 08 bf b3 99 ed bd 18 2c 08 3f
       -0.26575378 -0.5322236 -0.116015814 0.5319228
000010 c0 4f 35 3e 87 b2 2d 3f 9b a4 2d 3f 87 33 fc 3e
       0.17706203 0.67850536 0.67829293 0.49258062
000020 b2 6a cb 3e 64 8d 41 be 66 05 bf be e0 bf 9d be
       0.3972984 -0.18901592 -0.37308806 -0.30810452
000030 c0 34 ae be 58 76 32 3c c0 92 b9 be
       -0.3402462 0.010892473 -0.36244774
