chatbot/data.pth (torch, 10090 bytes, 6 tensors)

l1.weight f4 [8, 145]
0.31953216 -0.08333458 0.05656551 0.3919646 1.601211 0.6259548 0.40485278 -0.32676858
-0.20186627 -0.21527334 0.27559772 -0.18619801 -0.22500642 -0.17953885 0.116627924 0.008696591
0.509674 -0.07893807 -0.39404422 -0.16765395 0.0007488916 0.07423942 0.004852553 -0.27872282
0.2048091 1.1084404 0.0015997421 0.3659114 0.472166 -0.23206814 0.94246596 0.85093486
-0.17494157 -0.6036593 0.2444145 0.67955124 0.27532315 0.196107 -0.65675473 -0.25648898
-0.6027963 0.029594816 0.24314055 0.2797796 0.2598338 -0.4458373 -0.20086083 -0.23872504
-0.32596266 -0.31970796 -0.31122497 0.049667086 -0.20133737 -0.05531098 -0.14242229 -0.17162687
-0.14016433 0.2700396 -0.21091376 0.1619044 0.75513184 -0.25242642 0.510752 0.65724665
-0.12752073 0.29963532 0.6682364 -0.12947698 -0.11244505 0.04217245 -0.4084985 -0.08950575
0.3624682 0.17670959 0.31368312 -0.59761333 0.45157355 -0.31894097 0.04202045 1.9011077
0.22535679 -0.09473023 -0.19773081 0.3275103 0.46550912 0.9583922 -0.6047958 0.11590941
-0.1489326 1.050865 -0.09013615 0.04206004 -0.27250016 0.2013907 0.04529465 -0.039842445
0.030568682 -0.16317241 0.012669791 -0.11115992 -0.286552 -0.07475876 0.26494262 -0.104818806
0.24170125 -0.2449891 -0.14313702 0.1981403 0.12343822 0.24556664 -0.22116879 0.36452878
0.6787841 0.790297 -0.56596524 -0.27489373 -0.072000764 0.46556982 -0.2824984 0.29173014
-0.2761647 0.02334247 -0.21684133 0.4007666 -0.16568467 -0.07581843 0.18810768 -0.24877702
0.008156066 -0.28286707 -0.38508248 -0.16677131 0.38357544 0.4968404 0.18628268 -0.22095257
-0.6019451 1.6482745 -0.18050352 -0.3362429 -0.31046358 0.41892493 -0.3822563 -0.57417697
-0.6014661 0.24722049 0.49176708 0.5364287 0.29254955 1.1928263 0.26560706 0.19023845
0.57675004 1.0072017 0.8645222 0.31386843 0.5202748 -0.30441815 -0.51301664 -0.103919834
0.5530939 0.6831316 0.26822135 1.4704003 -0.36336887 0.3435737 0.42370987 0.65688086
-0.5756938 -0.23903058 -0.9854386 1.016357 0.19410233 0.34291598 -0.48437792 -0.34930518
-0.76322037 0.67106354 1.2495743 -0.28221622 0.6495346 -0.17218442 -0.88342047 1.5997591
0.2596573 1.1058398 0.8373845 0.7057874 -0.17759562 0.24852516 1.5767572 1.03824
-0.5499613 -0.5840237 -0.58948255 -0.63265926 0.8564296 1.0158775 0.40105137 0.59665525
0.6608467 0.4995368 -0.025721071 0.9440384 -0.102997966 0.87483907 0.5741487 -0.0304971
-0.8262281 0.5300039 -0.1479075 0.5281054 0.7593732 -0.3714796 0.30429834 1.9767282
0.011206749 -0.38679135 0.15970668 0.24048854 0.6501511 0.34177586 0.31947264 0.9034307
-0.96419847 -0.15536803 0.7239881 0.60374177 -0.430809 -0.025114363 -1.265384 1.2243307
0.5482543 0.40081748 -1.2751771 -0.42987582 0.43813968 -0.633886 0.1744153 0.7664772
0.37296867 -0.13199322 -0.02246037 -0.13221169 0.44763157 0.28390154 0.95481074 -0.055361003
-0.39768386 0.7987287 -0.530917 1.0271747 -0.75227624 0.57895947 -0.84576494 0.6475651
00000000: b899 a33e 52ab aabd 3cb1 673d 96af c83e
00000010: 7bf4 cc3f 933e 203f dd48 cf3e 364e a7be
00000020: 08b6 4ebe 9d70 5cbe 251b 8d3e b1aa 3ebe
00000030: 1568 66be 08d9 37be 9fda ee3d 257c 0e3c
00000040: ff79 023f 48aa a1bd 2ac0 c9be 7aad 2bbe
00000050: 4451 443a d60a 983d 2a02 9f3b c2b4 8ebe
00000060: 7ab9 513e 60e1 8d3f 70ae d13a bd58 bb3e
00000070: bebf f13e 45a3 6dbe 7345 713f ded6 593f
00000080: e223 33be 6a89 1abf cb47 7a3e 12f7 2d3f
00000090: 28f7 8c3e 46d0 483e 1421 28bf 8652 83be
000000a0: dc50 1abf d470 f23c d6f9 783e 463f 8f3e
000000b0: f008 853e c944 e4be 76ae 4dbe 5674 74be
000000c0: 94e4 a6be c3b0 a3be e158 9fbe b76f 4b3d
000000d0: 622b 4ebe c48d 62bd 26d7 11be f4be 2fbe
000000e0: 3d87 0fbe a142 8a3e c7f9 57be 44ca 253e
000000f0: 5250 413f 093e 81be a5c0 023f 5141 283f
00000100: cb94 02be cd69 993e 8a11 2b3f 9d95 04be
00000110: 9749 e6bd 05bd 2c3d b726 d1be ca4e b7bd
00000120: 6f95 b93e 5cf3 343e 139b a03e 30fd 18bf
00000130: a634 e73e 3b4c a3be a31d 2c3d 7f57 f33f
00000140: eec3 663e ec01 c2bd f279 4abe 6eaf a73e
00000150: 3657 ee3e 3159 753f e6d3 1abf ea61 ed3d
00000160: ca81 18be bf82 863f 4d99 b8bd 2647 2c3d
00000170: 2485 8bbe 5d39 4e3e e286 393d d531 23bd
00000180: 2c6b fa3c ab16 27be f494 4f3c d0a7 e3bd
00000190: f2b6 92be 1f1b 99bd 8fa6 873e 3eab d6bd
000001a0: 8880 773e 6cde 7abe 8392 12be 4ae5 4a3e
000001b0: 2dcd fc3d d275 7b3e 127a 62be 84a3 ba3e
000001c0: cbc4 2d3f e750 4a3f 19e3 10bf dfbe 8cbe
000001d0: 2375 93bd 2b5f ee3e a1a3 90be a75d 953e
000001e0: 7665 8dbe b538 bf3c a70b 5ebe 4831 cd3e
000001f0: 3ea9 29be b146 9bbd 4d9f 403e 67bf 7ebe
00000200: 05a1 053c f4d3 90be 8829 c5be 19c6 2abe
00000210: 0064 c43e dd61 fe3e e3c0 3e3e 6441 62be
00000220: 1319 1abf a9fa d23f ead5 38be 0828 acbe
00000230: 15f5 9ebe 547d d63e 19b7 c3be 43fd 12bf
00000240: aff9 19bf 5e27 7d3e e5c8 fb3e 6453 093f
00000250: 0ec9 953e 88ae 983f a6fd 873e decd 423e
00000260: e4a5 133f fceb 803f 5451 5d3f 5db3 a03e
00000270: bb30 053f b2dc 9bbe 0f55 03bf ecd3 d4bd
00000280: 9097 0d3f b6e1 2e3f 4f54 893e 1436 bc3f
00000290: 7c0b babe e4e8 af3e 80f0 d83e 5829 283f
000002a0: ab60 13bf 6fc4 74be b445 7cbf fc17 823f
000002b0: c3c2 463e af92 af3e 6200 f8be 21d8 b2be
000002c0: 6962 43bf d2ca 2b3f 0df2 9f3f a57e 90be
000002d0: e647 263f 1d51 30be d827 62bf e8c4 cc3f
000002e0: cdf1 843e 298c 8d3f d55e 563f 7cae 343f
000002f0: a0db 35be 617d 7e3e 2ed3 c93f 0ce5 843f
00000300: 44ca 0cbf 9482 15bf 54e8 16bf f5f5 21bf
00000310: f83e 5b3f 4608 823f 9b56 cd3e 66be 183f
00000320: 402d 293f 4ac3 ff3e ffb4 d2bc 80ac 713f
00000330: 99f0 d2bd 74f5 5f3f 69fb 123f 0ed5 f9bc
00000340: af83 53bf 56ae 073f 1075 17be ea31 073f
00000350: 4866 423f 9332 bebe fecc 9b3e 6e05 fd3f
00000360: 839c 373c 8409 c6be 268a 233e a142 763e
00000370: 4d70 263f 3ffd ae3e eb91 a33e 3c47 673f
00000380: b6d5 76bf cc18 1fbe 4957 393f d28e 1a3f
00000390: ff92 dcbe a3bc cdbc 1af8 a1bf deb6 9c3f
000003a0: 655a 0c3f f337 cd3e 0139 a3bf af18 dcbe
000003b0: d853 e03e 5a46 22bf ed99 323e da37 443f
000003c0: c0f5 be3e 3b29 07be cffe b7bc 8062 07be
000003d0: f72f e53e 8b5b 913e 7a6e 743f 38c2 62bd
000003e0: 389d cbbe 7c79 4c3f 2dea 07bf 767a 833f
000003f0: 2d95 40bf b036 143f 0d84 58bf d4c6 253f

l1.bias f4 [8]
0.59427494 0.9533763 0.73472536 0.742536 0.9244605 0.8093851 0.7206409 0.70433426
00000000: 6722 183f 7810 743f f616 3c3f d716 3e3f
00000010: 71a9 6c3f dd33 4f3f ec7b 383f 404f 343f

l2.weight f4 [8, 8]
0.38598612 -0.09316143 1.6755291 -0.6769645 1.7672622 0.40259925 -0.83978766 -0.021377625
-1.6410947 2.2855892 0.8189451 -0.18260022 1.0234592 1.4592011 -1.232796 0.7262024
0.5002984 -1.5918428 1.1727145 1.8181276 1.1396517 0.62514865 0.76187485 0.23001914
2.3120658 0.04526399 0.13639542 -0.57802933 -0.086687185 1.975009 1.4722552 2.4790258
-0.27036357 -0.22376743 0.24213326 -0.30601272 -0.29957634 -0.26303446 0.0055496017 -0.13607262
0.81310755 -1.0490847 -0.23272873 0.33477995 -0.860625 1.779102 -0.39159966 1.2871814
-0.2563879 -0.16096024 -0.74879587 1.4865713 -0.121718295 0.63619703 -0.069143295 1.0125345
-1.1951187 -0.41062096 -0.3282777 1.122679 1.2367371 0.578388 -0.7054746 0.8227815
00000000: f99f c53e 6bcb bebd bd77 d63f 8c4d 2dbf
00000010: a635 e23f 7d21 ce3e 53fc 56bf 2120 afbc
00000020: 640f d2bf 1847 1240 63a6 513f 8dfb 3abe
00000030: b600 833f 1ac7 ba3f 42cc 9dbf 67e8 393f
00000040: 8e13 003f 81c1 cbbf 821b 963f 68b8 e83f
00000050: 1be0 913f be09 203f 3b0a 433f 238a 6b3e
00000060: e3f8 1340 bc66 393d 3eab 0b3e bbf9 13bf
00000070: 0d89 b1bd 18cd fc3f dc72 bc3f 5ca8 1e40
00000080: 186d 8abe 4a23 65be c8f1 773e b3ad 9cbe
00000090: 1262 99be 74ac 86be 6fd9 b53b 9f56 0bbe
000000a0: d127 503f 6848 86bf 7150 6ebe 4768 ab3e
000000b0: ec51 5cbf 9db9 e33f c07f c8be 5cc2 a43f
000000c0: 4645 83be c3d2 24be 16b1 3fbf f847 be3f
000000d0: 7147 f9bd cfdd 223f 009b 8dbd bb9a 813f
000000e0: a6f9 98bf e93c d2be 0414 a8be f2b3 8f3f
000000f0: 674d 9e3f 3c11 143f fc99 34bf cfa1 523f

l2.bias f4 [8]
0.066675805 1.0591764 0.42579696 -0.37931824 -0.05347967 -0.41863063 0.7169456 0.15464933
00000000: 538d 883d 1893 873f 0f02 da3e 0036 c2be
00000010: 800d 5bbd c156 d6be bf89 373f 655c 1e3e

l3.weight f4 [16, 8]
0.79056054 0.1410523 -0.19658557 -0.03649874 -0.035949364 -2.8983915 -2.573918 -2.1793675
-2.4608107 -2.4789333 0.37169263 0.33436087 -0.29114705 -1.4578143 0.546881 -2.3308465
-2.034925 0.1312058 -0.8651156 0.25180867 0.046246387 0.544388 -0.85553306 -2.9548793
-1.3649879 -2.3131888 0.2657836 -0.22350238 0.2968529 1.387503 -0.23584177 -0.44823286
-0.116226666 0.23093274 -1.6039084 -0.18818039 -0.012762529 -0.31201753 -1.5673945 0.25041696
0.5662811 0.27285725 0.1988351 -2.7079067 -0.00890879 -1.9574673 -1.7321725 0.64874977
-2.0512857 1.6271986 -1.1143566 -1.8504572 0.080492936 -0.9774248 -2.1486301 -2.0224352
-1.7205673 0.13360928 0.23926242 -2.301267 -0.2874662 -3.1972828 0.42180103 0.39954272
-3.4812276 0.5094436 -1.8916821 0.03174301 -0.24973668 -4.074758 0.33728027 0.4016751
-3.8074322 0.24337764 1.1113316 -0.35841492 0.3476872 -3.0467114 0.30321252 -3.5303662
0.14995141 -2.6041205 0.2741264 0.21449836 -0.1047809 0.46941403 -2.5431452 -0.7650369
-1.0946275 -0.64191115 -0.45050716 -0.7416936 -0.28025305 0.4944073 -0.015442114 0.38415807
-1.624098 -2.0391011 0.5230004 -1.7886797 0.23638767 0.36001283 0.8367273 0.6769084
1.3275834 0.7073257 -2.6014585 -1.6026961 -0.284261 -1.7246829 -2.8887615 -1.531678
-0.026167478 -0.6824958 0.53833926 -0.1731057 -0.006503385 -2.3312025 -0.81981343 0.39041042
-1.7581117 -1.5143211 -1.0409718 1.422327 0.10269657 -2.7950647 -2.7666526 -1.2702534
00000000: 2d62 4a3f 0470 103e ba4d 49be b47f 15bd
00000010: a43f 13bd 3f7f 39c0 13bb 24c0 c27a 0bc0
00000020: ec7d 1dc0 d8a6 1ec0 7f4e be3e 5931 ab3e
00000030: 3a11 95be a999 babf 6500 0c3f 972c 15c0
00000040: 363c 02c0 d05a 063e 3778 5dbf 11ed 803e
00000050: da6c 3d3d 035d 0b3f 3704 5bbf be1c 3dc0
00000060: ecb7 aebf 490b 14c0 ca14 883e cfdd 64be
00000070: 1afd 973e b399 b13f 8180 71be c77e e5be
00000080: 3f08 eebd a279 6c3e df4c cdbf 5cb2 40be
00000090: ed19 51bc c3c0 9fbe 62a0 c8bf a736 803e
000000a0: ccf7 103f f2b3 8b3e 6e9b 4b3e 584e 2dc0
000000b0: 2cf6 11bc 4a8e fabf d4b7 ddbf 7714 263f
000000c0: 4448 03c0 0b48 d03f 3da3 8ebf c8db ecbf
000000d0: 7bd9 a43d 8338 7abf 2883 09c0 946f 01c0
000000e0: 8d3b dcbf dfd0 083e 3501 753e f547 13c0
000000f0: c52e 93be 48a0 4cc0 4ef6 d73e dd90 cc3e
00000100: 6fcc 5ec0 e56a 023f a422 f2bf f504 023d
00000110: f9ba 7fbe 6b64 82c0 00b0 ac3e 5ca8 cd3e
00000120: f8ac 73c0 fd37 793e 1d40 8e3f 2982 b7be
00000130: 0f04 b23e 52fd 42c0 ac3e 9b3e 85f1 61c0
00000140: dd8c 193e e9a9 26c0 4c5a 8c3e 75a5 5b3e
00000150: 5e97 d6bd 0957 f03e e4c2 22c0 75d9 43bf
00000160: c11c 8cbf 4a54 24bf e0a8 e6be a2df 3dbf
00000170: 547d 8fbe f422 fd3e ec00 7dbc 5eb0 c43e
00000180: 71e2 cfbf a280 02c0 5be3 053f 75f3 e4bf
00000190: 9c0f 723e 9a53 b83e c333 563f de49 2d3f
000001a0: 41ee a93f 4c13 353f 4c7e 26c0 2525 cdbf
000001b0: a88a 91be 69c2 dcbf 78e1 38c0 060e c4bf
000001c0: 2e5d d6bc 0bb8 2ebf 9ad0 093f 9f42 31be
000001d0: 591a d5bb 6c32 15c0 4bdf 51bf e0e3 c73e
000001e0: ce09 e1bf 46d5 c1bf 903e 85bf d00e b63f
000001f0: 9452 d23d 57e2 32c0 d610 31c0 aa97 a2bf

l3.bias f4 [16]
0.35598075 0.18593003 -0.048782952 -0.76459795 -1.0368569 -0.34164897 0.45894745 -0.5347501
0.6400367 0.8384234 -0.5325566 -0.93683606 0.062612 0.009606827 0.33756799 0.79599935
00000000: 1c43 b63e 7164 3e3e a2d0 47bd b1bc 43bf
00000010: bab7 84bf 9dec aebe 29fb ea3e 62e5 08bf
00000020: 72d9 233f eaa2 563f a155 08bf 7dd4 6fbf
00000030: b83a 803d f465 1d3c b6d5 ac3e 9dc6 4b3f
